output/mnist_net.pth (torch, 852935 bytes, 10 tensors)

conv1.weight f4 [16, 1, 5, 5]
00000000: d5c1 b63b b707 cc3d a52f 17be ffb3 ecbc
00000010: 35de 303e aea1 7c3e d6bc 873c 9285 933d
00000020: 595e d7bc 9dec c83d 4ffe c83d d70a 4e3c
00000030: cdad 93be fa14 2cbe 1ced 0dbe 08c3 14bd
00000040: 9b66 873d c4e7 0a3b 212f 0dbe 3083 4ebd
00000050: 8a1f 0c3e 2b3a 913e 4d8e f03c 6db4 903e
00000060: e68f fb3d b3af 6b3d 4cbe 2c3e f773 b3bd
00000070: 7b5e 4ebc 8aa0 9b3d 774f 8bbd 9351 bb3d
00000080: aaeb 31be 2b2d d7bd a4ca c9bd 3b27 d8bd
00000090: 2a11 75be 9b76 3b3d 9ecb 0b3d dd09 163e
000000a0: 24c4 2d3e cde2 34be fcc8 e03b e439 17be
000000b0: 83a7 203b fd1a 943d c2e1 f73d 2c38 bd3d
000000c0: 286a 30bd c6d3 ad3d b3ba 223e e426 733e
000000d0: 728d f83d c4af 433d d8a6 46bd fe20 82bd
000000e0: 021e 263d 8840 e1bd 006c 4f3d eecd bcbd
000000f0: 3249 383d 3a81 b4bd 603a 62be 2e38 713e
00000100: e831 713e 0944 a1bd 2629 25bd 8bd4 d5bd
00000110: ef8f f63d 5e9c 083e 7dd5 79be dada eebd
00000120: dc10 a03c 9bb6 913e 94fa 513e b236 353e
00000130: 212d 0f3e 3b36 07be fa3c 62bd ca92 a8bd
00000140: 2e21 91bd ba6f ab3e 704f fc3c cbcc 73be
00000150: de46 de3d 1496 b43d 259c 1c3e 05a1 efbd
00000160: 53f9 e43c 58af 8dbd bd8e 113e b37f 0d3d
00000170: 1e0f 57bc edb9 923d 8e6b 03bd ac31 d9bc
00000180: 2415 0a3e 4055 77bd d605 38be b4b0 b93d
00000190: 146b 8d3e c97b 5a3e 4519 713d e491 ec3d
000001a0: 8632 c3bd 4887 fc3d dd33 14be 24a4 7dbe
000001b0: 4213 01be 4972 2ebd 5d59 c03d 5a9b 273e
000001c0: 3ed7 bcbd 1ffe c03d b795 3e3e 6524 5bbd
000001d0: 7176 adbd 45ed 223d b831 613d 9fbd 043e
000001e0: dc10 1c3e f985 f63d ef32 113d 2be1 143e
000001f0: ddf1 8dbd b2d1 27be ba7e 86be 1b27 28be
00000200: a886 a8bd bc17 3dbe d720 f13d 6b6b 4fbc
00000210: 5459 e3bd 3f8a e7bb aa90 9c3d 6b98 7b3e
00000220: ff1c 413e 58b2 253d 7aa0 8a3d 8f60 2d3e
00000230: c421 ca3e a7b5 763e 41c1 7b3e f966 61bc
00000240: 1ce0 21be 23b6 27be 4e47 823d 874f d2bb
00000250: 09e0 4cbd 60f9 93bd 6e94 e6bd a593 cdbd
00000260: 16b8 8a3d 2666 803e bb82 8c3e 580b 19be
00000270: a01b d3bc e2d3 6fbe 58e6 9dbd 9f61 a2bd
00000280: 70af c43d c6ff 383b fe2a 13be 3e15 6bbe
00000290: 2d04 b5bd 3629 1f3e 6a79 81ba 48d5 5d3e
000002a0: 67b7 37be 9f7e 2f3c e8b8 563e 5425 dcbc
000002b0: 406f 8c3e 7bd0 5e3e 9633 1b3d 3344 db3c
000002c0: e79f 21be 7f2e 02be 80be 2b3e d165 79bd
000002d0: e633 fd3d f950 10bd 120a 313e 08e0 dd3d
000002e0: 32dc 553e fca2 593e 895b ab3d 8afe 093e
000002f0: 25de e93b b404 ea3d 8ecb 023e 8180 143e
00000300: f380 a7bd f62e ae3c e3fa 4abe 9517 8dbe
00000310: 86ce 23be 695c 1ebd 3abb 18be 841f efbc
00000320: ba54 453e 1529 853e bdbf 64be 509c 34be
00000330: 4de0 b9bd 0ec9 b13e 074a 783d 09cc 20bd
00000340: a985 b1bd 1f49 00bd d71a 543e dcb3 b43d
00000350: a3fc 44bc f04f 89bc 03f6 bebc aa80 693e
00000360: e547 18bd 7bdd 5cbd da3d 7e3e c112 cdbd
00000370: 3d23 a13d 6f8a 1a3e 2dc9 44bc 8a65 143e
00000380: cbf7 dfbd 9aef 743e 4812 e5bd 3c74 e5bd
00000390: 4bb8 93bd d7ed 4ebe 94ea b33d ce41 203e
000003a0: 0ee9 563c 8c8c 863e eecb 543e e872 a43c
000003b0: 656b 1e3e 4cc8 8ebd 9a1a 2bbd 5ac2 3c3d
000003c0: 2b62 e73d 5bb7 5c3e bb30 95bd 48bb 083c
000003d0: 0f46 0e3e 578f 55be ecbe 3f3e c6f4 1dbe
000003e0: 2070 c23d 8c30 7f3d 0d5f 0b3c 0d33 1c3e
000003f0: cddd 853e 1f1e 7b3c 023b dabc dbfe dcbc
0.005577306 0.09962409 -0.14764269 -0.028894423 0.17272265 0.24671051 0.016569536 0.07203211
-0.026290106 0.098107554 0.098141305 0.012575827 -0.28843537 -0.16804877 -0.13859981 -0.03631881
0.06611367 0.0021195272 -0.1378751 -0.05041808 0.13683906 0.2836469 0.02936473 0.28262654
0.12283306 0.057540607 0.16869467 -0.08762353 -0.012595768 0.0759898 -0.06802266 0.091464184
-0.17375055 -0.10506662 -0.09853104 -0.105543576 -0.23932329 0.045767408 0.03412973 0.146522
0.16969353 -0.17664643 0.0068598967 -0.14768177 0.0024513907 0.0723171 0.12103607 0.092392296
-0.04306999 0.08487658 0.15891533 0.23745304 0.121363536 0.047775045 -0.04849896 -0.06353949
0.04055596 -0.109986365 0.050640106 -0.092189655 0.04499168 -0.088137105 -0.22092581 0.23556587
0.23554194 -0.07874305 -0.040322445 -0.1044093 0.12039172 0.133409 -0.24397846 -0.116628364
0.01953929 0.2845963 0.20505744 0.17696646 0.13982059 -0.13204281 -0.055233933 -0.08231123
-0.07086407 0.33483678 0.030799598 -0.23808591 0.108533606 0.08817688 0.1529394 -0.11700634
0.027950918 -0.0691821 0.14214607 0.03454561 -0.013126163 0.07164369 -0.032084994 -0.026512943
0.13484627 -0.060384035 -0.17970976 0.090669066 0.27620757 0.21336283 0.05886199 0.11551264
-0.09531121 0.1233049 -0.1447291 -0.24769646 -0.12605003 -0.04258946 0.09392045 0.16367856
-0.09220742 0.0942347 0.18611799 -0.053501505 -0.084698565 0.03977706 0.054979056 0.1296296
0.15240806 0.12037272 0.035448965 0.1453902 -0.069308974 -0.16388586 -0.2626856 -0.16421168
-0.08228809 -0.18466085 0.11773842 -0.012659888 -0.11101022 -0.0070660408 0.0764478 0.24569862
0.18858717 0.040453285 0.0676889 0.16931365 0.39478886 0.24092732 0.2458544 -0.013757461
-0.15808147 -0.16378073 0.063612565 -0.006418172 -0.050018344 -0.07225299 -0.112587795 -0.100379266
0.06773393 0.25077933 0.2744349 -0.14945734 -0.025770009 -0.2342067 -0.0770995 -0.07928776
0.096037745 0.0028228625 -0.14371869 -0.22957322 -0.08838687 0.15543064 -0.0009878103 0.21663392
-0.17941056 0.010711341 0.20968974 -0.026873268 0.27428627 0.21759216 0.037890993 0.026765918
-0.15783654 -0.1271305 0.16771889 -0.060888115 0.123634145 -0.03523347 0.17288998 0.10833746
0.20884779 0.2125358 0.08367068 0.13476005 0.0071370774 0.11426678 0.12772962 0.14502145
-0.08178892 0.021262627 -0.19822268 -0.27557054 -0.15996751 -0.038662348 -0.14915171 -0.029189833
0.19270602 0.26007906 -0.22338767 -0.17637753 -0.09075985 0.34723705 0.060617473 -0.039257083
-0.08668072 -0.031319734 0.20713364 0.08823368 -0.012023124 -0.01676175 -0.023310667 0.22802988
-0.03717794 -0.053922158 0.24828282 -0.10013343 0.07868049 0.1509187 -0.012010855 0.14491859
-0.10935935 0.23919526 -0.111851275 -0.112038106 -0.072128855 -0.20207916 0.087849766 0.15650102
0.013117088 0.26279104 0.20780918 0.020074323 0.15470655 -0.06971797 -0.041773416 0.046083786
0.11298021 0.2155432 -0.07284685 0.008345433 0.13893913 -0.20855461 0.18725175 -0.15425405
0.094940424 0.062302157 0.008506549 0.1525385 0.26145783 0.015327006 -0.026639465 -0.026976993

conv1.bias f4 [16]
00000000: db4b 2ebe 4027 c9be 0c79 b8bd 6324 a5be
00000010: 0a19 bfbe 35c4 73be da22 28bd cdb2 92bd
00000020: bc8c a5be 6ee9 53be bdf6 f5be f80d a9be
00000030: 71ec 78be c529 aebd d613 8abe 7870 c0be
-0.17021124 -0.39287758 -0.09007463 -0.32254323 -0.3732379 -0.23805316 -0.041048862 -0.0716301
-0.32333934 -0.20694515 -0.4803981 -0.3301847 -0.24308945 -0.08504061 -0.2696826 -0.37585807

conv2.weight f4 [32, 16, 5, 5]
00000000: db03 c4bd 50eb 12be d34f 1a3d f0d8 b33d
00000010: c2d8 55bd 5f70 29be 6b25 efbd 964f 3c3e
00000020: 3977 113e f4f4 f0bd a6d0 92be 81ac 84bd
00000030: c8a1 093b a3af fa3d cd22 1cbe bdc1 3bbe
00000040: c04b 573c 3254 c93b 01d3 85bd 4d3b eabd
00000050: cdc6 a23c f633 523d d6fa 493e 4c81 fa3d
00000060: ec6e 19ba 6fc5 bebc d9b1 063e 68f3 903d
00000070: 5947 cdbd 060d 9e3d c090 c8bd 8292 89bc
00000080: 9cbf 193c 5c1c e6bd ba31 0cbd 35f3 8a3c
00000090: 2443 a13d c8b5 183c f13b 6cbd f5e1 1e3d
000000a0: efbe 5cbd 5aea bfbd 4bde 22bd 4b4c c83c
000000b0: 8d53 8aba 8d25 1ebe 87d1 0cbe 3305 183c
000000c0: 45ed ba3d 51ea 963b a5ea c93d 5ef3 833d
000000d0: 3bfa 81be 73c8 80bd f70d c23d cc6f 963d
000000e0: e8b7 f73d 4f5d bdbd 366d ee3c dcb9 dfbc
000000f0: 0dd0 a13c 6ba6 093e 382a 4abe a7b6 553e
00000100: 938c 3cbc 76e1 bebc 1f45 f33c 4ecf 02bd
00000110: 506d 38b8 568d a7bd 4ffd 1e3d 9342 923e
00000120: a710 70bc c9b4 82be bba4 71bd 9634 d1be
00000130: 1d32 9639 be3f 0c3d f28a 553d 5ec9 eebc
00000140: ea5e 9bbe 31b9 edbc 6115 7f3e 9325 f3bc
00000150: f3b3 b6bd cfec 2bbe 7630 a63c f8f8 413e
00000160: 8b63 593d c6ef 6ebd 8abb eabd 973c 08bc
00000170: e4a6 673d 8ced f4bd 5714 9c3c 6aaa 86bd
00000180: 2aa5 023d 1a30 183e 58dd 913c 05bc 18be
00000190: 738d 56bd af97 27bd 4df4 ed3c a6d4 1c3d
000001a0: fce4 f03d 9974 d3bd 2018 babd 1e3a 78bd
000001b0: 9944 96bd a521 9abd c4de edbd 8ed3 c53d
000001c0: b2e4 0f3e e39f 303d 23ea 923c 2c46 70bb
000001d0: b913 063c c002 edbd bfeb 35bd 85b6 ecbd
000001e0: 0222 46be 5234 77bd c99c 773d 33c3 bb3d
000001f0: 45f9 01be 7a1f bcbd 1dac fcbd 5c62 b9bd
00000200: cc2f 65be 6d7d 85be a72d febc dfc7 e1bd
00000210: b589 2fbe 1108 03be 6e21 bfbe 8f88 2ebe
00000220: 3123 78be b628 91bd a37b 02bd 8742 6bbe
00000230: 5621 99be de96 29be 9b5a c1bd c581 f0bd
00000240: 3d6c 1abe 6cef a6be 990d a2bd 30ab 063e
00000250: 06eb 633d a5bb 9f3c d6d7 44ba a21f b23c
00000260: 3bc3 ca3d 1c1f 143d 3a14 61bd 500f 44bd
00000270: db10 acbd af74 ecbd 1fc4 29be 45f8 44bd
00000280: 80b9 83be f26d e5bd 9660 07be e3e4 6a3d
00000290: 1a9d 40be 340d 5abe 8805 23be 0b6c f0bd
000002a0: 41b2 963b 462a 32be b191 ffbd 3dd5 a63c
000002b0: 5adf e33d f2fb 7e3e 6365 f23c 8a26 5cbe
000002c0: d8c4 65be 3219 183d 0d5f c73c 89bb f3bd
000002d0: 9634 b1bd d0a4 543d 9c10 fd3d 320c 3cbd
000002e0: b1fb 17be 9902 d0bc e2da f7bd f1ee 9d3d
000002f0: ec52 f1bd a7ad 0bbe 81f1 17be 847a bfbd
00000300: 78a9 07be e32a b23c 9c8b bd3d 1792 68be
00000310: a7d4 5bbe bea4 2fbe 7ccf 81bd e730 59bc
00000320: 610c 8ebe a3cf 08be 93f2 b03d bf8f 173e
00000330: d66a 9fbc c1da 66be 257b e9bc 2374 3a3e
00000340: d675 1d3e ce3a 27be c324 7cbe 7741 0d3c
00000350: da2d a83d 54f7 a4bc 057f 0dbe eba2 63be
00000360: c5a7 3e3d 0442 713d 1c07 5d3d c9c8 00be
00000370: fafc 63be 332c 033d d06b eb3c 4cb8 433d
00000380: 1c05 1abe 64be 46be 6b8f f7bd a7e3 073d
00000390: f728 e7bd c5fe 50bd a099 debc 0887 05be
000003a0: 5342 3cbd 0415 443c 7036 9cbd 0d22 cdbc
000003b0: 3ebc 95bc 4339 a33d 0408 6d3b a02c 04be
000003c0: 7475 84bd 5764 fbbc 71e0 1f3d 6ec9 783d
000003d0: 959f 27be cad8 6cbe e653 f33c 7e56 b1bd
000003e0: 25fe 5d3b 1a77 36be defe 50be 2395 1ebd
000003f0: 4003 0fbe ec41 7c3d 68f4 abbc ed93 d9bd
-0.09571048 -0.14347577 0.037673783 0.08781612 -0.05220867 -0.16546772 -0.11677059 0.18389735
0.14205636 -0.11765471 -0.2867481 -0.06478215 0.002100097 0.12240531 -0.1524765 -0.18335624
0.013140619 0.00614407 -0.065343864 -0.11437092 0.019870186 0.051319085 0.19724593 0.12231693
-0.00058530155 -0.023287503 0.13153781 0.07077676 -0.10023374 0.07717328 -0.09793234 -0.016793493
0.009384062 -0.11235878 -0.03422711 0.016961673 0.07874134 0.009320684 -0.057674352 0.03878971
-0.053893026 -0.09370871 -0.039762776 0.024450442 -0.0010553465 -0.15444012 -0.13751803 0.009278583
0.09127287 0.0046055694 0.09859208 0.06442903 -0.25386223 -0.06288233 0.0947532 0.07345542
0.12095624 -0.09246313 0.02910481 -0.027310304 0.019752527 0.1344239 -0.19742668 0.20870458
-0.011508125 -0.023300868 0.029696045 -0.031935982 -4.3970824e-05 -0.081812546 0.038815793 0.28566417
-0.014652408 -0.25528553 -0.05899499 -0.40860432 0.00028647567 0.034240477 0.05213446 -0.029148754
-0.3034585 -0.02901897 0.24910499 -0.029681003 -0.08921041 -0.16789554 0.02028678 0.1894263
0.053073447 -0.058334135 -0.114615515 -0.008315227 0.056555644 -0.11959371 0.019052668 -0.06575473
0.031895794 0.148621 0.01780574 -0.14915474 -0.05238099 -0.04091614 0.029047156 0.038288735
0.11762425 -0.103249736 -0.09086633 -0.0606023 -0.07337303 -0.075259484 -0.11614755 0.096594915
0.14052084 0.04312123 0.01793391 -0.003666292 0.008183413 -0.1157279 -0.044414278 -0.1155825
-0.1934891 -0.06035263 0.060452256 0.09168091 -0.12692745 -0.09185691 -0.123375155 -0.09051964
-0.22381514 -0.26072255 -0.031027628 -0.110244505 -0.17142375 -0.12796046 -0.37330192 -0.1704428
-0.24232174 -0.07087843 -0.03185619 -0.22974597 -0.29908246 -0.16561458 -0.0944111 -0.117435016
-0.15080352 -0.3260454 -0.0791275 0.1315124 0.055644058 0.019498656 -0.00075089687 0.0217436
0.099005185 0.03616248 -0.05495093 -0.047866166 -0.084016524 -0.11545693 -0.1657872 -0.04808833
-0.25727463 -0.11202611 -0.13220438 0.05734719 -0.1880993 -0.21294099 -0.15920079 -0.117393576
0.0045988862 -0.17398939 -0.1247896 0.020365352 0.11126585 0.24900797 0.02958936 -0.21499076
-0.22438371 0.037133403 0.024337316 -0.11901004 -0.08652608 0.05191499 0.123566836 -0.045910068
-0.14842106 -0.025391864 -0.121022955 0.0771159 -0.11783394 -0.13640462 -0.1483822 -0.0934954
-0.13248241 0.021748966 0.09255144 -0.22711979 -0.21467839 -0.17152688 -0.06338403 -0.013256288
-0.2774382 -0.13360457 0.08640017 0.14800929 -0.019460123 -0.22544385 -0.028501103 0.18208365
0.15376982 -0.16331026 -0.24623398 0.008621565 0.082118705 -0.020137466 -0.13817985 -0.22230117
0.046546716 0.058900848 0.05396186 -0.12576593 -0.22264472 0.032024574 0.028737932 0.04778318
-0.15041012 -0.19408566 -0.12087902 0.03317609 -0.1128711 -0.051024217 -0.027172863 -0.13039792
-0.04596169 0.011967901 -0.07627571 -0.02504065 -0.018278237 0.07969906 0.0036168108 -0.12907648
-0.06467715 -0.030687494 0.039032403 0.060738973 -0.1636947 -0.23129573 0.029703092 -0.08659075
0.0033873406 -0.17818871 -0.20409724 -0.038716447 -0.13966084 0.061586305 -0.020990565 -0.10623918

conv2.bias f4 [32]
00000000: a107 06be 0117 69be 2f97 5abe e1b3 18be
00000010: 757e 0fbe a855 2ebe d162 c3bd b96f 7bbe
00000020: 56b7 b5bd 28ab 11be 3f12 2f3d 8593 9dbd
00000030: eff8 babd d0c0 18be 9a66 1cbe f6f4 32be
00000040: 7425 eabc d77f dabd b04d bcbd ff39 8bbd
00000050: 95f5 04be c874 2abe a59e 91bd 003f 2cbd
00000060: 05b3 6dbe aa65 35be 1af9 2dbd a0ba b3bd
00000070: b846 61bd b627 11be 703f 26be 07ca 2ebe
-0.13088848 -0.22762682 -0.21346734 -0.14912368 -0.14013083 -0.17024863 -0.09540332 -0.24554338
-0.08872859 -0.14225447 0.04274201 -0.07694153 -0.091295116 -0.14917302 -0.15273514 -0.17476258
-0.028582312 -0.10668915 -0.09194505 -0.06798171 -0.12984307 -0.16646111 -0.07110337 -0.04205227
-0.23212822 -0.17714563 -0.04247389 -0.0877583 -0.054999083 -0.14175305 -0.16235137 -0.17069255

fc1.weight f4 [120, 1568]
00000000: 6a94 653d 988f e73d 044b 673d 45fd 913d
00000010: 8cff e6bc 76b9 3c3d 8161 e13c 7665 90bc
00000020: b67d 99bc 7288 b8bc 87aa 60bc 2669 a1bc
00000030: 0241 c6bd 4bc9 d83d af8d 52bd c221 28be
00000040: a46b dabd 6875 f6bd 452d 8cbd 7957 69bd
00000050: 5507 1e3e 34a9 28bc 62b4 ebbd 0ea2 533e
00000060: 668f 383c 3ec4 b73c e580 dd39 9b8a 333e
00000070: 792a 8e3d f38f db3c 9cc5 e83d 3203 753d
00000080: 507b f73d 6b66 a5bd 3c8d f73d cd69 6e3d
00000090: 3223 bbbd c38f cdbd 8619 013c a88a 42bd
000000a0: 0820 2d3a 24b3 9c3d ccde afbd 9951 d9bc
000000b0: f7f2 d7bc 6566 87bd e7a3 03be 5ceb 2ebe
000000c0: 7575 83bb ce8d a23d 3eb8 0a3b 468a d7bc
000000d0: bdd2 17be 2691 c23d 621d b93b d0f4 e6bb
000000e0: 0234 c8bc 9a57 7b3c 9490 02be 2cc7 c9bd
000000f0: 20d2 92bd e64d 063e f18a b2bc d4da 58bc
00000100: b754 23be de52 bbbe f223 70bd c0e3 bdbc
00000110: 5a5b 4c3e 97e6 253d a0e0 e93d 53c7 1d3d
00000120: be95 02be 049a e6bd c986 0bbe 5ab0 143d
00000130: d7ca eb3c af74 b3ba 852c 4abd 03b1 2fbd
00000140: ade4 2ebe 3252 29be 8a00 bbbd 7ef8 763c
00000150: 1fb3 443d 7859 923c 18b6 c33d 34a5 d03d
00000160: 0854 b93d a5a8 f9bd 61b1 d93d 2764 e0bd
00000170: 1fb1 31bd ae10 f03d e17b 833d dadb 3dbd
00000180: 1192 a7bd 92a4 793d 971f 673d 861d a93d
00000190: cddf d8bd 6b4e 04be 8625 c8bc b359 f23c
000001a0: 05f2 863c 3543 be3d 2ab7 23bd a03c 7abb
000001b0: c0cb f23d b3b7 073c be4f 493e 514f 593d
000001c0: a112 8a3c c358 4abe 9b0e 07be 6ea1 c23c
000001d0: 5030 4c3e f65b 3a3d dce2 e83d 2789 993b
000001e0: ce39 88be 0d85 44be 4122 333e c611 b13c
000001f0: 1d6f 4dbd 9d03 c1bc 9c28 82bd 9104 19be
00000200: ceb0 2bbe 432e 653e 1b92 413e b6fb abbd
00000210: a87a bfbd 2912 09bc a7bf d4bd ada2 2bbe
00000220: 8451 cabd c121 b83d d9c0 72bd b5f1 72bb
00000230: 8505 b23d 202e cf3c 2775 8f3c 8e68 eabc
00000240: fc82 94bc b1d8 cf3c 835d 04bd 7c24 6e3d
00000250: 1721 8e3b 0a53 6cbc 2258 5abc aabf 71bd
00000260: 13e9 0ebd c6fe 16bd 6d27 d73d 285c 4e3c
00000270: 71e7 08bc fc5d b93d a049 a33d e7bd 883c
00000280: 65be b43d 4e43 093d cc31 06be ca37 9dbd
00000290: ab62 b4bd 863b 48bc 86a6 36bd a900 74bd
000002a0: 6be8 57bd b3d2 18be 2c97 3f3e a29d 8e3d
000002b0: a569 09be 2310 24be 2b12 053d ed9e a9bd
000002c0: 2fdc 0ebc 02d0 213e d65e 1a3e 5a19 b2bd
000002d0: de5c d9bc 7d24 cabc 0bf3 a7bb eb40 9bbc
000002e0: 46f0 a9bb 9c3c 283c c379 183d afd3 893d
000002f0: 74d8 6fbd fdf0 dabc eea6 6b3d 04f4 f63d
00000300: e444 db3c 935f 8abd 5115 89bb 9d15 493d
00000310: 1c40 e2bc 94bb 813b bebb c73c fef6 a63c
00000320: 9566 413d f623 6dbd da11 423d 8957 b9bc
00000330: b489 103d 8905 303c 41e7 4d3d a700 bcba
00000340: 2563 42bd 3403 9fbc 4718 a7bd 0ff3 493d
00000350: fd7e 283d 1ff2 d8bb 4148 c9bb 5fdc 29bd
00000360: 8dca 093d f6c0 19bd b9bb 8a3c d7e1 6d3d
00000370: 8618 113d 2235 0cbd 7596 19bd fe73 a83d
00000380: b44f 5c3d bdcc d2bc e9b8 a53c 2471 b73c
00000390: 19d0 d4ba 6d29 0ebd d2eb af3d d671 523d
000003a0: 37a7 233d b924 353d fd23 f83c 122d 6cbd
000003b0: e376 80bd 4bb2 70bc dda5 f73c 18d5 133d
000003c0: 3f3b 303c 8ca9 8f3c 2062 9a3c 5c4d 5b3b
000003d0: 5d1e 923c b3f6 00bd 2278 10bc 4db4 173c
000003e0: b4af 8b3d 192b c03d 3e8c 7c3d 1da3 2c3d
000003f0: 07e9 163b 36b8 27bd d3dd 8a3d 1b8b 1ebc
0.05604974 0.11306685 0.056468025 0.071283855 -0.028198026 0.046075307 0.027512314 -0.017626505
-0.018736701 -0.022526 -0.013712532 -0.019703459 -0.09680368 0.105852686 -0.05140465 -0.16419128
-0.10665062 -0.12034112 -0.06844572 -0.056968186 0.15432484 -0.010294247 -0.11509015 0.20667288
0.011264658 0.022432443 0.0004224844 0.17533343 0.06941695 0.026802039 0.11365816 0.0598175
0.12084067 -0.08076175 0.12087485 0.05820637 -0.09137572 -0.10037186 0.00787962 -0.047495514
0.00066041993 0.07651356 -0.08587417 -0.026528167 -0.026360972 -0.06611327 -0.12855493 -0.1708197
-0.0040118047 0.07937203 0.0021166946 -0.026311051 -0.14826484 0.09500341 0.0056492547 -0.007048227
-0.024438862 0.01534071 -0.12750465 -0.09852442 -0.071689844 0.13115653 -0.021794768 -0.013235766
-0.15950285 -0.3658666 -0.05862803 -0.023179889 0.19956723 0.04050311 0.11419797 0.03852017
-0.12752435 -0.11259845 -0.13625635 0.036300994 0.028783245 -0.0013691391 -0.049358863 -0.04289342
-0.1707942 -0.16535261 -0.09130962 0.015073894 0.048022386 0.017864928 0.09556216 0.1018776
0.09049231 -0.121903695 0.106295355 -0.109566025 -0.043381806 0.117219314 0.064201124 -0.046352245
-0.08182157 0.060947962 0.05642661 0.08257584 -0.105895616 -0.12920539 -0.024431955 0.029583788
0.016472826 0.092901625 -0.0399696 -0.0038183108 0.118552685 0.008283543 0.19659325 0.053054158
0.016854586 -0.19760422 -0.13189165 0.023758616 0.19940305 0.045497857 0.11371395 0.0046855393
-0.266066 -0.1919138 0.17493536 0.02161492 -0.050154794 -0.023561293 -0.06355402 -0.14943148
-0.16766664 0.22380929 0.18903391 -0.083976194 -0.09349567 -0.008366146 -0.10388117 -0.16761275
-0.09878829 0.08990813 -0.059265945 -0.0037070338 0.08692459 0.025290549 0.017511917 -0.028614309
-0.018128864 0.025371881 -0.032315742 0.058140263 0.0043374407 -0.014424095 -0.013326677 -0.059020676
-0.034890246 -0.036864065 0.10505567 0.012595214 -0.008355961 0.09051129 0.07973027 0.016692115
0.088253774 0.033511452 -0.13104934 -0.076766565 -0.08807882 -0.012221223 -0.044592403 -0.059570942
-0.052711885 -0.14924125 0.18710011 0.0696366 -0.13419206 -0.1602178 0.03248803 -0.08282266
-0.008719488 0.15802005 0.1507524 -0.08696242 -0.02653354 -0.024675602 -0.0051254085 -0.018951854
-0.0051861135 0.010268357 0.037225496 0.067298286 -0.058556035 -0.02672624 0.057532243 0.12058261
0.026766248 -0.067565106 -0.0041834493 0.049092878 -0.02761846 0.0039591286 0.024381515 0.020381447
0.04721697 -0.057895623 0.047380306 -0.022624748 0.035287574 0.010743507 0.05026937 -0.0014343456
-0.047457833 -0.019410707 -0.081589274 0.049304064 0.04113673 -0.00662066 -0.0061426465 -0.041469928
0.033640433 -0.037537538 0.016935216 0.058076706 0.035423778 -0.03423036 -0.037497003 0.08225249
0.05378695 -0.025732392 0.020229774 0.022392817 -0.0016236334 -0.034707475 0.08589901 0.051378094
0.03995439 0.044224475 0.030290598 -0.05766017 -0.06272676 -0.014690946 0.030230457 0.036091894
0.010756313 0.017536901 0.018845618 0.0033462858 0.017836744 -0.03148527 -0.008817704 0.009259296
0.06820622 0.0938322 0.061657183 0.042147744 0.0023027079 -0.04094716 0.06780591 -0.00967672

fc1.bias f4 [120]
00000000: 872d 70bd 5380 383c b22c 56bd 4474 e5bb
00000010: 53f6 0d3c 84bc e0bc 2d3b a0bd 00f8 e4bb
00000020: b377 e5bc 1606 9abd a390 b1bb 995f 2e3c
00000030: 209b 19bc fe6d 4abc 5e95 abbc 66d4 00be
00000040: a003 bdbd 0914 aabc ff81 d7bc 7300 98bd
00000050: 1854 6f3c 6677 583c 670e a93d 73ae 403c
00000060: b590 83bc 7554 4a3d 3689 523d 8b7f a0bc
00000070: 1ce1 693d f4c4 333d fbea 603d 23e5 463d
00000080: f8a8 fbbc d423 d43b 5fd2 35bb 653f 3f3c
00000090: 07d9 4cbc 30ef dfbd e53a 853c 5525 39bd
000000a0: 23f2 083c 2b03 a4bc df0f 833d 970f ebbc
000000b0: 16e1 f2bd f2ac 58bc 5438 263c d53f 133d
000000c0: 2a51 9fbd 43b7 0a3c f1a3 383c 8d94 afbd
000000d0: be5e d8bc 04d9 00bd b24c 10bd 6832 43bc
000000e0: bd57 ea3b 6d95 24bc 471a e7bc 7df5 38bc
000000f0: f635 ddbb 57fb 5bbd ad83 54bc 1c24 98bd
00000100: 44e7 47bd eb34 36bd 7d28 81bd 4857 04bd
00000110: 80b7 00be 9b14 dabc 9444 8c3c a414 183d
00000120: 3149 803b 93d7 0bbc 85b4 0e3d b47a ca3b
00000130: 71f6 983b 00dd e9bc ad04 07bd 96a1 8dbd
00000140: 8983 2ebd a5d9 5fbd 7f86 6bbd 6e64 b2bb
00000150: 4351 8a3c 84e8 8abd 6a99 853c e231 053c
00000160: 6b02 9fbd 56aa eeb9 3e0f ebbd fde0 893c
00000170: 66aa b0bc 5f16 debd 22a6 65bd 299c 663b
00000180: 1ed6 1cbd 5857 aabc 4038 6e3b 5927 e0bc
00000190: 5b90 c3bc e9ee f1bd 271b 323d 0f3c 11bd
000001a0: 11db 51bc 3b62 153c 97ed 2bbc f84f aabd
000001b0: 9380 98bd 038d b5bd 8491 623d 48c6 88bb
000001c0: b2a5 5cbc d3f5 42bd 8a1d 173b 621e eab9
000001d0: 50ed 0bbc 1fc9 c0bb f128 103d f170 c0bd
-0.05863717 0.011261064 -0.05228872 -0.0070023853 0.008664685 -0.027433641 -0.07823787 -0.0069875717
-0.028011179 -0.07520692 -0.0054188534 0.010642909 -0.009375364 -0.012355326 -0.020945247 -0.12581024
-0.09229207 -0.020761507 -0.026307104 -0.07421961 0.014607452 0.013212061 0.082547 0.011760342
-0.016060213 0.04939695 0.051400386 -0.019592067 0.057099447 0.043889 0.054911595 0.048558366
-0.030720219 0.0064739976 -0.00277438 0.011672829 -0.012502915 -0.10934293 0.016263435 -0.04520162
0.008358511 -0.020021042 0.063995115 -0.028693957 -0.11859338 -0.013224827 0.010145266 0.035949547
-0.07779153 0.008466545 0.011269555 -0.08573256 -0.026412364 -0.031456962 -0.035229392 -0.011913873
0.0071515725 -0.0100453915 -0.028210772 -0.011288998 -0.0067508174 -0.053706493 -0.012970847 -0.07428762
-0.048804536 -0.04448406 -0.06306551 -0.0323098 -0.1257 -0.026621154 0.017122544 0.03712906
0.003914975 -0.008535284 0.034840126 0.006179178 0.00466805 -0.028547764 -0.032963444 -0.06915586
-0.04260591 -0.05465092 -0.057501312 -0.005444101 0.016884452 -0.0678263 0.016308505 0.008129569
-0.07764133 -0.00045521808 -0.114775166 0.016830916 -0.021565627 -0.10844111 -0.05606664 0.0035188294
-0.038290136 -0.020793602 0.0036349446 -0.027362512 -0.023872545 -0.118131466 0.043482926 -0.035457667
-0.012808577 0.009117658 -0.010493658 -0.08316034 -0.074463986 -0.088647865 0.055314556 -0.0041740276
-0.013467239 -0.047597717 0.0023058378 -0.00044654595 -0.008540466 -0.0058833505 0.035195295 -0.09396542

fc2.weight f4 [84, 120]
00000000: 424c e8bd 9969 49bd c14f aebd 30df ca3c
00000010: 3888 bebc bb26 72bc 1a3b 4dbd 2395 48bd
00000020: 32a8 06bd 1fc5 b63d 0092 17bb d2a6 e03c
00000030: 18fc 4d3c fa8d 37bd 07df 90bd f55c af3b
00000040: 4799 b3bd 8793 91bd 4c14 02bd 672f 94bd
00000050: 0718 fcba 80d3 583d 983a 2f3d 3487 4d3d
00000060: 6430 963d 07ff b8bd 33d8 f1bc fec3 a83d
00000070: 62c7 8ebc c468 ccbc cc5d 2c3d 7c79 ee3c
00000080: 7430 fd3c fc63 b2bc c07d a8bc eb99 07be
00000090: 6061 1dba cb43 f83b 55ee 96bd 2414 71bc
000000a0: 206f 603b 511a 773d 21b4 863b 042c d9bd
000000b0: e004 d7bd f416 c7bd d60a fd3c 6cb4 423d
000000c0: 17a9 5abd 64ae a73d 2831 73bd aa1b 45bb
000000d0: 041d 98bd 253a 00bd 6174 9dbc 5ad4 073d
000000e0: 22dc 8fbd fcbf 9ebd 5b34 c9bc 683c 693d
000000f0: fdb1 afbd 95dd f3bc 9870 b1bd 660e c13a
00000100: a716 52bd f965 12be b51e 14bd 1cd4 5a3c
00000110: 3453 c5bd 500d c5bb 1198 2ebd 8ae5 0abe
00000120: 09c9 d63c 34cf 553d 8403 9bbc 1824 9b3d
00000130: 5bce 98bd 64b2 6abd e0c3 eabb 1747 cbbb
00000140: 24f1 3fbd cb34 f83b 1c1c 99bd a81d 7c3c
00000150: 7dce 11be 0999 90bc 85fc d3bd ecaf 81bd
00000160: dd99 debd 1f82 cabd 3ac2 d2bc 652f 4bbd
00000170: c0f3 a2bb 7a24 5d3d 1b06 15be 8b0f 06bd
00000180: 7250 19bd bce8 80bd ddac 1bbd d0d5 0ebc
00000190: 01e4 6abd 971f 093d 682b dbbc b140 91bd
000001a0: 4c2e a3bd 6c28 253d 4f80 a0bd 34a8 9dbc
000001b0: 5c4d f53c ad8e c6bd 61e1 2ebe 90d1 b3bd
000001c0: 7008 80bc cd08 823b 2e49 57bd e0f7 adbc
000001d0: c6d7 75bd 2241 6fbd 7e82 6abd 1423 e03c
000001e0: 1be1 9bbd 01da 1ebd 1265 783d ac45 543d
000001f0: 672e 0bbd 06b2 18bd b043 d1bc e2bc 833d
00000200: 9541 40bd d16e cbbd 0836 643d 007c e239
00000210: 0c67 85bd 0607 383d c18b a2bd ba37 813d
00000220: 7ba9 8cbc 4a97 19bd a73c 74bd 78e2 8a3d
00000230: 2447 dabd f6c8 38bd 8f7f 87bd 84c8 9bbd
00000240: a8c9 953d ad8d b9bd 004c fd38 40e0 c1bb
00000250: 999a 25bd edd4 923c 9541 893d 83c4 92bd
00000260: 0208 85bd 4c2b 013d 1c38 153d 3bba 24bb
00000270: 732b 823c 8926 a8bd 20c5 aeba 0a42 ce3c
00000280: 9655 b13d 654c 483d 7d01 20bd 6514 8d3c
00000290: e911 93bd e797 7abd 9a6c a7bd f3ad 8abd
000002a0: ee9a d8bc 2e90 903d 2f17 13bd 64bc 3dbd
000002b0: 4c57 9e3c 3c62 90bc 2a75 93bd 0c99 433d
000002c0: 80cd 5bbd 9a0c 8b3d 0cc7 a0bd 3c88 3d3d
000002d0: f4b9 adbc aba3 203a 8869 99bd 40cf cbbd
000002e0: 1946 89bc aaf8 a2bd c635 02bd ff1d 073d
000002f0: 0aa4 2fbd 509c 403d 5033 ecbb e8e7 8d3d
00000300: 17dc 05bd 13bc 70bd a308 363d f44a 9d3d
00000310: 153f 19bd c890 e73c a0f4 aebd e8b9 9bbd
00000320: c0f5 4a3b f772 8c3d b320 81bd 282b 7b3d
00000330: 4075 7cbc 116b afbc 3fbc 893d d534 8dbd
00000340: 29ea 1bbc a205 8fbd ee72 19bd a08c e2bc
00000350: e183 b1bd 3c78 223d 58b6 b8bd fc5f 2a3d
00000360: 0180 f03b 1687 19bd 41b1 6fbd 8045 80bb
00000370: d82d 0b3d 7a40 52bd 3021 b23b 3c27 953d
00000380: 384e 6f3c 6438 b3bc 9f08 8fbd 89c1 e3bd
00000390: 884a ad3b fdaa 06bd 2bde 21bd 1657 4cbd
000003a0: faa7 c33b ebd4 adbc 60bc 483c 8086 7a3b
000003b0: 4405 af3d b04d 9b3d 45a3 9b3c 8eeb d7bd
000003c0: 5066 973d 8a71 af3d 53db 94bd 12c6 933d
000003d0: 5e3d a2bd 94ef 783b 430a 4bbd 0239 813d
000003e0: 95a6 84bd e5c3 8b3c f211 90bd a096 dcbb
000003f0: 1ebc a63d ea2d 16be 84e5 273d acc5 c03e
-0.1134267 -0.04917297 -0.085113056 0.024764627 -0.023258314 -0.014779742 -0.05010519 -0.048970353
-0.032875247 0.089243166 -0.0023127794 0.027423296 0.012572311 -0.044813134 -0.07073789 0.0053516575
-0.0876947 -0.07108217 -0.031757638 -0.07235604 -0.0019233235 0.052936077 0.04278049 0.050177768
0.073334485 -0.090330176 -0.029522037 0.082405075 -0.017429058 -0.0249523 0.04208164 0.029110663
0.030906893 -0.021776192 -0.020567775 -0.13242309 -0.0006003585 0.007576441 -0.07369677 -0.014714275
0.0034245923 0.06032783 0.0041108285 -0.106040984 -0.10498977 -0.09721175 0.030888956 0.047535345
-0.053383913 0.08187559 -0.05937305 -0.0030076304 -0.07427409 -0.03130545 -0.019220533 0.0331615
-0.07024409 -0.07751462 -0.024561098 0.056942374 -0.085788704 -0.029768744 -0.08664054 0.0014729023
-0.051291134 -0.14296712 -0.036162097 0.013356235 -0.0963501 -0.00601355 -0.04262549 -0.13564125
0.026218908 0.052199557 -0.018922575 0.07575244 -0.07461234 -0.057299033 -0.0071644634 -0.006203543
-0.04686083 0.007574653 -0.074760646 0.01538793 -0.14238925 -0.017651098 -0.10350899 -0.063323826
-0.10869191 -0.098881 -0.02572738 -0.049605746 -0.004972905 0.053989865 -0.1455311 -0.032729667
-0.037430234 -0.062943906 -0.038006652 -0.008717969 -0.057346348 0.033477392 -0.026754096 -0.07092417
-0.07967815 0.040321752 -0.07836973 -0.019245245 0.029944114 -0.09695182 -0.17078163 -0.08780205
-0.015629023 0.0039683343 -0.052560024 -0.02123636 -0.06002023 -0.058411725 -0.057253353 0.027360477
-0.07611295 -0.038782123 0.060643263 0.051824257 -0.0339798 -0.03727915 -0.025544971 0.06432511
-0.046937544 -0.09933246 0.05571559 0.00043198466 -0.06513795 0.044928573 -0.07936812 0.06309457
-0.017170658 -0.037497796 -0.059628155 0.06781477 -0.106581 -0.045113526 -0.06616127 -0.07606605
0.073138535 -0.09060226 0.00012078136 -0.0059166253 -0.04043064 0.017923797 0.06701962 -0.07166388
-0.06495668 0.03153543 0.036430463 -0.0025135416 0.015889859 -0.08210475 -0.0013333894 0.025177974
0.08658902 0.04890098 -0.03906392 0.017221639 -0.071811505 -0.06118002 -0.08175011 -0.067714594
-0.026441064 0.0705875 -0.03591078 -0.04632224 0.019328736 -0.017624967 -0.07200082 0.04775338
-0.053662777 0.06789513 -0.07850465 0.0462725 -0.021206833 0.0006127904 -0.074908316 -0.09951639
-0.016757058 -0.07957585 -0.031789564 0.03298759 -0.04288105 0.04702407 -0.0072082654 0.06928998
-0.032680597 -0.05877311 0.04444183 0.07680312 -0.037413675 0.02826728 -0.08542752 -0.07603818
0.0030969232 0.06857865 -0.06305065 0.061320454 -0.015408814 -0.021413358 0.06725358 -0.068948425
-0.009516277 -0.06983496 -0.03746312 -0.027654946 -0.08667732 0.039665446 -0.09019154 0.041595444
0.007339478 -0.037482344 -0.058518652 -0.003914535 0.033979267 -0.05133102 0.005436085 0.07282874
0.014606051 -0.021877475 -0.06984066 -0.11120898 0.005288426 -0.03287791 -0.039518517 -0.04988774
0.005970952 -0.021219691 0.012251943 0.003822714 0.08545926 0.07583177 0.018998751 -0.10542975
0.073925614 0.08566578 -0.07268395 0.07215513 -0.07921861 0.0037984597 -0.049570333 0.063097015
-0.064770855 0.017061183 -0.07034673 -0.006731823 0.08141349 -0.14665952 0.040990368 0.37650812

fc2.bias f4 [84]
00000000: 3838 1abc a7b6 e3bd 4cec 97bd bdaa 1bbb
00000010: 12ce a2bb 4ace a9bd 4e43 acbd 3fa8 d5bd
00000020: e696 0abe 50e9 acbd 81ef 17bd ac90 22bd
00000030: e1a8 92bd feef 10be 42ac 61bb a9d3 95bc
00000040: 28a8 a53d ce24 c8bd 574b b4bd 53c9 29be
00000050: 64a2 b0bc 0a05 c3bc 79e6 413c a332 8e3c
00000060: 44d7 fcbd b7bd 10be 4070 d1bd 7276 eebd
00000070: f251 c3bd 217c 4dbe 7d5d b9bd 5965 28bd
00000080: 33b9 a8bd 33de 96bd aa72 3bbe dc4a fcbd
00000090: cdf3 35bc 7683 27be 1445 743c 679a 2dbe
000000a0: 9e09 99bd 1ed7 513c 21b0 4bbc 5be0 3dbb
000000b0: b0ea d9bd 1d8d 26bc edcb d53d 71fd 4bbd
000000c0: c5ec 0ebc df2c 0fbe d0b6 a6ba bd0d 923d
000000d0: 2f84 65bd 0e2d 1d3c 6730 43bb 39fa abbd
000000e0: 9657 95bd 54bc acbb 5e50 6bbc 7844 e8bc
000000f0: d113 193d 9277 17be 3dc4 69bd 0a89 06be
00000100: 00ed f0bc 433f 4dbd d07c 08be 3ca2 10be
00000110: f14d 9cbd ec0b 15be 9ba6 28bc 4462 243c
00000120: 0ee8 e93c bbc3 d0bc d413 f0bd 29b1 013d
00000130: c402 e0bd 3da9 c6bc 42cb 61be 2fc4 88ba
00000140: 5900 29be 90b1 0abe 10fe 2d3d 81ee 16be
-0.009412818 -0.111188225 -0.07418117 -0.002375289 -0.004968413 -0.082913 -0.08411275 -0.10432481
-0.13534126 -0.08442938 -0.037093643 -0.03968875 -0.07161117 -0.1415405 -0.003443495 -0.018289404
0.08088714 -0.09772645 -0.088034324 -0.16580705 -0.021561809 -0.023806114 0.011834734 0.01735813
-0.12345746 -0.1413487 -0.10226488 -0.116436854 -0.09537114 -0.20066883 -0.090510346 -0.041112278
-0.08238449 -0.073666 -0.1830546 -0.12318966 -0.01110549 -0.16358742 0.014909048 -0.16953431
-0.074725375 0.012807636 -0.012432129 -0.0028972838 -0.10640466 -0.01016548 0.104392864 -0.049802247
-0.008723442 -0.1398196 -0.0012719277 0.071315266 -0.056034263 0.009593261 -0.0029783489 -0.083973356
-0.07292096 -0.005271474 -0.014362423 -0.028352961 0.037372414 -0.14791706 -0.057071913 -0.13138214
-0.029409885 -0.05010916 -0.13328862 -0.14124388 -0.07632054 -0.14555329 -0.010293628 0.010033194
0.028553035 -0.025483957 -0.11722532 0.031663094 -0.109380275 -0.024250621 -0.22050193 -0.0010434444
-0.16504039 -0.13544297 0.04247862 -0.1473942

fc3.weight f4 [10, 84]
00000000: fe6f e5bc df4d 24bd 6684 b3bd 9596 8d3c
00000010: f4db 20bd 1c4c 4c3b b396 e0bb 3f32 af3d
00000020: 7fd5 8e3d 3abe 533d 71a8 0cbe 004f 063d
00000030: f0b5 8bbd 84f2 0f3d cc54 65bd dbab d03d
00000040: d127 dabc aff3 b3bd c0cb 023e 7d41 d9bc
00000050: f6fd a73d cd2c 90b8 d235 f6bb 95c4 2a3d
00000060: 8ed6 903d 6be6 c7bd e6ef fd3c 1946 c6bd
00000070: 1b86 813c c99d 193d cab8 79bd 1f50 553d
00000080: a38d eabc 4db6 d83c a275 0f3c 60a8 e9bb
00000090: c841 b33d beaf 9c3d 9201 1fbd b921 91bb
000000a0: 5f0d 013e 9e44 853c 4e4c 133d 872f 923c
000000b0: 5f2f 8e3c f4d7 60bc 2345 743e 84bc 9d3d
000000c0: eed9 a83c 1f28 4ebc 84ad 33bd 389f bcbd
000000d0: 9b8f fd3c 0914 a03c e50d f03d 1301 303d
000000e0: 4803 0c3d 0da4 9dbd 7438 7ebd 05fc f43b
000000f0: 3d5c 1d3d 6163 f3bc 0d72 ad3c 57f0 fd3c
00000100: 88f9 90bd ef09 d4bd ad43 573d e7cf f13c
00000110: 8237 11bd 4855 92bc cff7 acbc 6589 e2bd
00000120: 9119 923d 3497 b53d d861 9f39 fd85 ca3c
00000130: cdd3 8bbd 7e8b 8ebd 94fb a4bc 99c5 5b3d
00000140: 2e8a f53a 35e5 4b3d 2426 463d 7a58 183d
00000150: 680f bebe 73fe 163d 2cdc 0dbf 5e9b 87be
00000160: ef4c 36be b69a ccbc f725 abbe 0809 34bf
00000170: 77e3 09be c00c 56bd 23d4 08be f4fb bfbb
00000180: 6a9c f5bd bf94 b1bc 79aa 22be f642 9fbe
00000190: 6679 81be a261 0a3d 9763 b8be c3c7 a6be
000001a0: 03b1 e2bd e1fb 97be 525d 9abd f688 a6be
000001b0: 6329 32be b7bd dcbd 12e5 77bc ae65 c2be
000001c0: aab9 64be 3f5d 9ebe 47b7 35bf 5422 edbd
000001d0: 1df4 c9be c04e 19bd 7594 8dbe 440c 3bbe
000001e0: 1316 78be 7bab e3bd f3db efbe 7f9d bdbe
000001f0: 85d7 77be 3889 1bbe 9a53 d2be 0e26 90be
00000200: 21f6 c3be 59bc a7be 671e 02be 23cd a3bd
00000210: 0efa 00be 5e63 44bf 51af f4bd 9586 2f3d
00000220: 5f14 52be 5ecd 4dbe e997 283c 5e36 8cbe
00000230: 4cae bebd 1661 93bd 23ed fdbd 3e1a 33bd
00000240: ae20 bbbe 7033 2cbe 779a 8bbe 97f1 49be
00000250: 3923 94be fcea ddbe f40b a4be ce19 c4bd
00000260: 8eaf 96be 32e5 f6bd 6b65 8dbe 72a5 d0be
00000270: bcc9 abbd 64e7 6ebd 45a0 03bf 0da4 a3be
00000280: 119a b5be afce adbe c98e a9be d326 fabd
00000290: 7587 88be 6c60 dabe 6d80 4cbf fda5 54be
000002a0: 3b16 0abf 0f3a d2bd e1ad 22bf 7102 3abe
000002b0: c963 8abd b14b fb3c 3bf2 88be 712c 09bf
000002c0: dc98 7dbe f637 b8ba dedb 0dbe 24b4 2f3b
000002d0: c9f8 43be 1ead 5cbe b383 a8bc 84f0 abbe
000002e0: fc84 a4be 208a 87bb 15ea d1be e1a9 ccbe
000002f0: 6b9c a8bd f428 3abe bff9 2fbd 40ff c7be
00000300: a0e5 4abe 08fb c13d fac5 75bc a751 b7be
00000310: 3083 7bbe 0c75 5abe f0cc 2cbf 388b 0bbd
00000320: 35f2 84be 25de a53d f741 cfbe 7711 0bbe
00000330: a9fe 60be 92fc cdbd 1dbc 97be 3f6d b2be
00000340: ba1b dcbd de8d c2bd 5f17 cebe 22c8 7ebe
00000350: ed37 b3be 20ec bfbe 9b12 88bd b1a0 08bd
00000360: e5fe 25be 0e5d 17bf a340 30be 2b04 d13d
00000370: ff1f 55be c7af 41be b1f3 fa3b 8c81 72be
00000380: f933 f1bd ed69 ccbc ff39 283d 4f2d 02bd
00000390: 77d8 99be 821b 51bc 46f5 9bbe 41e8 40be
000003a0: 54fe c9be 4597 cdbe 657c aabe 8b8b 1cbe
000003b0: d68e 2cbe 1aba d3bd 29e5 adbe ca05 b5be
000003c0: c204 f2bd baec db3c b40b 12bf bb0b bfbe
000003d0: 8985 88be 022a eabe 2ec1 b5be e200 bbbd
000003e0: d23d c3be 9275 e5be 3768 60bf 26c0 9cbe
000003f0: 50c4 fdbe 06a3 cb3c c07f 0fbf bb32 79be
-0.028007504 -0.040113326 -0.087654874 0.017283717 -0.039272264 0.0031173294 -0.0068539022 0.085545056
0.06974315 0.051695086 -0.1373613 0.032790184 -0.06821811 0.03514339 -0.05598907 0.10189029
-0.026630314 -0.08786713 0.12773037 -0.026520485 0.08202736 -6.8748e-05 -0.00751374 0.04169138
0.07072173 -0.097607456 0.030998182 -0.09681339 0.015811017 0.03750399 -0.060967244 0.052078363
-0.02863199 0.026454115 0.008756073 -0.0071306676 0.08752781 0.07650708 -0.038819857 -0.004429069
0.12602757 0.01626807 0.03596144 0.017844928 0.017356573 -0.013723362 0.23854499 0.07701972
0.02061173 -0.012582808 -0.04386665 -0.09210056 0.030952265 0.019540804 0.117214 0.042969774
0.034182817 -0.07697306 -0.062065557 0.007476332 0.038418043 -0.029710473 0.021172548 0.030998392
-0.07078844 -0.10353457 0.052554775 0.02951808 -0.035453327 -0.01786293 -0.021114258 -0.11061362
0.07133783 0.0886673 0.00030399743 0.024722094 -0.06827507 -0.069602 -0.020139493 0.05365524
0.0018733197 0.049779136 0.048376217 0.037193753 -0.3712113 0.036863755 -0.5541408 -0.26485723
-0.17802785 -0.024976116 -0.33427402 -0.7032628 -0.13465677 -0.052258253 -0.13362174 -0.0058588926
-0.11992724 -0.021677373 -0.15885343 -0.31105775 -0.25287932 0.033784516 -0.3601348 -0.3257428
-0.110689186 -0.29684356 -0.07537331 -0.32526368 -0.173986 -0.10778373 -0.015130298 -0.379682
-0.2233645 -0.30930516 -0.70982784 -0.11578813 -0.39444056 -0.037428617 -0.27652326 -0.18266398
-0.2422717 -0.11116692 -0.46847495 -0.37034222 -0.24203308 -0.15189064 -0.41079408 -0.28154033
-0.3827372 -0.32760885 -0.1270691 -0.07998111 -0.12595388 -0.7671412 -0.119475015 0.042852957
-0.20515583 -0.20097873 0.010290124 -0.2738523 -0.09310588 -0.07196252 -0.12398746 -0.0437262
-0.3654837 -0.16816497 -0.27266285 -0.19721065 -0.28933123 -0.4334334 -0.3204037 -0.09575234
-0.29430813 -0.12055434 -0.27616438 -0.40751225 -0.08388087 -0.05832614 -0.51416427 -0.31961098
-0.35469106 -0.3394675 -0.3311675 -0.122144364 -0.26665846 -0.4265169 -0.7988346 -0.20766445
-0.5394017 -0.1026498 -0.6354657 -0.18164994 -0.06757314 0.03067574 -0.26747307 -0.5358344
-0.24765342 -0.0014054764 -0.13853404 0.0026810253 -0.19137873 -0.21550414 -0.020570612 -0.33581936
-0.3213271 -0.004136339 -0.40998903 -0.39973357 -0.08232959 -0.18179685 -0.042962786 -0.39061928
-0.19814157 0.094717085 -0.015000815 -0.35804483 -0.24561763 -0.21333712 -0.6750021 -0.034068316
-0.2596604 0.08099011 -0.40480015 -0.13580881 -0.21972145 -0.100579396 -0.29635707 -0.34848973
-0.10747476 -0.09499715 -0.40252206 -0.24881032 -0.35003605 -0.37484837 -0.06644174 -0.033356372
-0.16210516 -0.59126365 -0.17212157 0.10205873 -0.20812987 -0.1891471 0.007658445 -0.2368223
-0.11777491 -0.024952853 0.041070934 -0.03178149 -0.30047962 -0.012762906 -0.30460566 -0.18838598
-0.3945185 -0.40154472 -0.3329803 -0.15287606 -0.16851363 -0.103382304 -0.33963898 -0.3535598
-0.11817314 0.026846278 -0.5704911 -0.37313637 -0.2666438 -0.45735174 -0.35498947 -0.09131028
-0.38133103 -0.44816262 -0.8765902 -0.30615348 -0.49563837 0.02485801 -0.56054306 -0.24335758

fc3.bias f4 [10]
00000000: 713a d7bd 07d3 94be ad7a d5be 76f9 a8be
00000010: 4f22 d9be 4bcf 503e ce9f 8ebe 0263 7abe
00000020: 055a c3be 05fc c9be
-0.10509194 -0.2906725 -0.41695157 -0.33002824 -0.42408988 0.20391576 -0.27856296 -0.24451831
-0.38154617 -0.39450088
