output/mnist_net.pth (torch, 852935 bytes, 10 tensors)

conv1.weight f4 [16, 1, 5, 5]
000000 e1 e2 29 3c e2 2a b7 3d 00 83 46 be 50 d6 c3 bd
       0.010369034 0.08943726 -0.1938591 -0.09562361
000010 75 1e 9d 3d 42 fc 64 3e 06 24 94 bb bd ed 3c 3d
       0.07671825 0.22361854 -0.004520896 0.046125162
000020 98 e7 4d bd 92 7b cd 3d 6a a4 c9 3d dc eb ed bc
       -0.050269693 0.10033335 0.098458126 -0.02904313
000030 f0 9b 9c be 29 a8 2d be c8 ca f5 bd ee 15 0a bd
       -0.3058772 -0.1695868 -0.12001568 -0.03371232
000040 3e 82 c6 3d 0f 5b 59 3d 9e 87 ac bd a7 5e 7b bb
       0.096928105 0.053065356 -0.084243044 -0.0038355978
000050 72 33 c8 3d cd d3 89 3e 3a 63 c8 3d 70 7c b8 3e
       0.097754374 0.26919404 0.09784551 0.36032438
000060 27 a9 39 3e b5 d2 f2 3d 44 50 81 3e 30 d5 78 bc
       0.18130933 0.118565954 0.2525655 -0.015187547
000070 07 ca 05 3d 80 0a c9 3d b1 a1 1f bd e4 f8 45 3e
       0.03266337 0.09816456 -0.03897256 0.19333225
000080 ac 18 b1 bd 6f 90 37 bd 9f 61 61 bd e1 a6 eb bd
       -0.08647284 -0.044815477 -0.05502474 -0.11506439
000090 92 e5 46 be 6b ea 0a 3e 66 c8 ab 3d 97 ad 15 3e
       -0.19423512 0.13565986 0.08387832 0.14617
0000a0 2b 48 07 3e b0 32 22 be c1 71 05 3d 91 27 3f be
       0.13211124 -0.15839648 0.032579187 -0.18667437
0000b0 88 6e e1 bd 36 1f 3a 3d 35 02 fe 3d 97 b3 ef 3d
       -0.1100741 0.04543992 0.12402765 0.11704176
0000c0 d9 c8 34 bd 4b e7 99 3d ed ad 0b 3e 27 29 7c 3e
       -0.044136856 0.07514819 0.13640566 0.24625073
0000d0 06 31 19 3e f2 8b ce 3d 51 af 00 bd e1 ea bf bd
       0.14960107 0.10085286 -0.031417195 -0.093709715
0000e0 64 7b 68 3d b3 cc c7 bd 75 cd b7 3d be f8 bd bd
       0.0567583 -0.0975584 0.08974735 -0.092759594
0000f0 e5 76 64 bc 57 8e 84 bd 24 b2 44 be 4c 4c 86 3e
       -0.013944362 -0.06472462 -0.1920858 0.26230085
000100 c0 56 5d 3e 6e c8 4f be 9f 83 0f be 26 e5 00 be
       0.21615124 -0.20291302 -0.14015053 -0.12587413
000110 f6 12 49 3e 79 8a 3a 3e a4 d8 95 be 45 34 1d be
       0.1963614 0.18216886 -0.29266846 -0.1535197
000120 a3 0c f1 3c 52 07 97 3e b5 67 96 3e dc 18 2c 3e
       0.029424971 0.29497772 0.29375997 0.16806358
000130 ff 32 d6 3d 2b eb 0c be a9 58 53 3c 47 a5 b3 bd
       0.104589455 -0.13761584 0.012899556 -0.087717585
000140 df f6 d7 bd 50 d8 96 3e 98 ee 83 3d 2c d8 5a be
       -0.10545134 0.29461908 0.064419925 -0.21371526
000150 70 ea bb 3d 35 5a 28 3c f4 90 00 3e 2c c4 02 be
       0.09175575 0.010275413 0.12555295 -0.12770146
000160 b1 93 0a 3d 2c fd 98 bd d8 29 93 3d 7c a7 7f 3d
       0.033832256 -0.07470164 0.071857154 0.062415585
000170 19 99 93 3c 32 f8 5e 3d ae 56 a2 bd e2 60 4b bd
       0.018017339 0.054435916 -0.07926689 -0.04965294
000180 c3 7a 3a 3e 49 e3 c5 ba 7b ed 08 be 02 ef ad 3d
       0.18210892 -0.0015097643 -0.13371842 0.08492853
000190 00 6a 93 3e 6e 99 4b 3e 3c 4b 79 3d b5 0f 8f 3d
       0.2879181 0.19882748 0.060862765 0.06985418
0001a0 12 f5 7e bd a3 ef fd 3d 57 e3 04 be a4 23 5b be
       -0.062245436 0.12399223 -0.12977348 -0.21400315
0001b0 c9 f9 76 bd 72 f3 b7 3c e8 a3 80 3d 56 e8 22 3e
       -0.060296807 0.022454951 0.06281263 0.15908942
0001c0 1d 30 c6 bd a6 14 14 3e d0 64 3a 3e 0b 70 6a bc
       -0.09677146 0.14461002 0.1820252 -0.01430894
0001d0 08 78 97 bd 25 d2 42 3d 1c af 23 3d e0 a7 8d 3d
       -0.07395941 0.04756369 0.03996192 0.06916785
0001e0 90 bb 5e 3e d2 65 15 3e f0 81 6a 3d 28 9a 44 3e
       0.21751237 0.14589623 0.057252824 0.19199431
0001f0 9e 38 07 be 22 d7 e9 bd 97 39 45 be cb 3f 26 be
       -0.13205191 -0.114179865 -0.1926025 -0.16235273
000200 02 60 cc bd 95 cc 4c be c2 2c be 3d d2 90 67 bc
       -0.099792495 -0.19999917 0.092858806 -0.014133649
000210 13 70 2d be b9 59 1c bd de b5 5a 3d 4c 2a 61 3e
       -0.16937284 -0.038171504 0.0533961 0.21988791
000220 25 12 08 3e 0c 31 b6 bc 9f d8 08 3d 8e 5d 18 3e
       0.13288172 -0.022240184 0.03340971 0.14879438
000230 47 2f bd 3e f8 ea 65 3e 3f 03 58 3e f3 3b f7 39
       0.36950132 0.22452915 0.21094988 0.00047156177
000240 6d 4d 03 be 82 d4 25 be 6d 9f 89 3d ea c3 be 3c
       -0.12822504 -0.16194347 0.06719861 0.023286778
000250 29 01 b9 3a 9b 43 1e bd e0 10 80 bd 7f f9 a0 bd
       0.0014114726 -0.038638692 -0.06253219 -0.078600876
000260 22 83 c0 3d b4 66 6c 3e ca e5 9b 3e 10 b1 ff bd
       0.094000116 0.23086053 0.30448753 -0.12484944
000270 ff 41 0b 3d 14 b3 39 be c5 21 6c bd 45 db df bc
       0.033998486 -0.18134719 -0.057649393 -0.027326236
000280 db 97 b6 3d 4f 41 a5 3c a2 c0 24 be 44 13 72 be
       0.08915683 0.020172743 -0.16089109 -0.23640162
000290 49 7e 6c bd 5a d4 f1 3d 17 cb e4 bc 29 30 18 3e
       -0.057737622 0.11808081 -0.027928872 0.14862122
0002a0 b1 14 5e be 6b 9c 0b 3a 28 96 69 3e 9a 6c c4 bc
       -0.2168758 0.00053257373 0.22811186 -0.023977567
0002b0 5a ea 6e 3e 94 e3 1d 3e 20 85 5f bc 60 07 8a 3d
       0.23331586 0.15418845 -0.013642579 0.06739688
0002c0 7d ac 12 be ac d8 ef bd 25 c0 33 3e 52 9a 9f bd
       -0.14323612 -0.11711249 0.17553766 -0.07793106
0002d0 26 8f 8e 3d 67 67 ba bd 22 8a 25 3e cf c5 f9 3d
       0.06960897 -0.09101754 0.16165975 0.12195932
0002e0 86 a4 54 3e f6 d8 26 3e 98 fe 24 3d 88 50 08 3e
       0.20765886 0.16293702 0.040281862 0.1331197
0002f0 d9 1b 1d bc dc 66 04 3e ee 94 1b 3e 78 b0 1a 3e
       -0.009589159 0.12929863 0.15193531 0.1510638
000300 e3 6a 96 bd 44 f3 24 3d 66 87 29 be c9 99 3f be
       -0.07344606 0.04027106 -0.16555557 -0.18711008
000310 fe b6 de bd 3e c9 7d 3c 3b 80 04 be 93 81 9d bc
       -0.10874747 0.015489874 -0.12939541 -0.019226825
000320 83 9a 54 3e 70 30 9e 3e f0 ad 43 be 7b 6a 1e be
       0.20762067 0.3089633 -0.1910932 -0.15470307
000330 74 c8 c7 bd 23 af b1 3e 26 76 9f 3d 91 74 90 bc
       -0.0975503 0.3470393 0.07786207 -0.017633708
000340 a4 d7 06 bd 3e 64 bf bc 6a b9 14 3e e5 f5 93 3c
       -0.032920495 -0.023363229 0.14523855 0.018061588
000350 da 98 55 3b 63 00 cd bc cb 7b c3 bc 74 5b 33 3e
       0.0032592327 -0.025024598 -0.02386274 0.17515355
000360 00 21 34 bd 52 db 2c bd 6d 2d 8c 3e 0d 3d 9e bd
       -0.043976784 -0.042201348 0.27378407 -0.07726488
000370 cd e7 0e 3c 75 c9 36 3e 9d 25 25 3d bc d2 35 3e
       0.008722258 0.17850287 0.040319074 0.1775617
000380 12 ea 89 bd 97 fb 49 3e ea af ea bd 75 52 61 bd
       -0.067340985 0.1972488 -0.11459334 -0.055010278
000390 69 a9 ac bd cc da 27 be 61 ce 30 3c de 27 dd 3d
       -0.0843075 -0.16392058 0.010791392 0.1079862
0003a0 62 40 da 3c 52 a3 82 3e c4 b7 54 3e 70 d2 f4 3b
       0.026642028 0.2551523 0.20773226 0.007471375
0003b0 77 2a 17 3e 2d d3 86 bd 3b 57 a6 bc a3 7e ba 3d
       0.14762293 -0.06583247 -0.020305267 0.09106185
0003c0 5c 3f cb 3d 1f de 56 3e 81 d6 dc bd 70 10 5d bc
       0.09924194 0.2098317 -0.10783101 -0.013492689
0003d0 6e 02 d3 3d 30 a2 2a be 7a 34 4d 3e 6f 09 03 be
       0.10303198 -0.16663432 0.2003955 -0.12796567
0003e0 a2 dd 90 3d f4 d2 92 3d 41 b4 c2 bc f2 0b 1a 3e
       0.07073523 0.07169142 -0.023767592 0.1504362
0003f0 3b 9c 72 3e 8b 59 56 bd a3 a8 d4 bd c3 d2 80 bd
       0.2369241 -0.05233149 -0.103837274 -0.062901996

conv1.bias f4 [16]
000000 b1 1d 88 bd f3 c2 85 be 6d 78 6b bd 64 2c 7f be
       -0.06646288 -0.26125297 -0.057487894 -0.24919277
000010 28 9f 84 be df b5 88 be c8 68 52 bc 2c 39 87 bd
       -0.25902677 -0.26701257 -0.012842365 -0.066027015
000020 ff 9b 95 be fd b4 51 be 1a 36 ca be f1 a8 9b be
       -0.29220578 -0.20479198 -0.394944 -0.3040233
000030 5c 89 31 be 09 0f 95 bd 49 7c 70 be 63 0f 8a be
       -0.17337555 -0.07278258 -0.23484911 -0.26964864

conv2.weight f4 [32, 16, 5, 5]
000000 88 db cc bd 53 52 6b be 80 4f a3 bc dc 4e 9c 38
       -0.1000281 -0.22980623 -0.01993537 7.4533484e-05
000010 5b 82 e4 bd 29 e6 0e be b4 96 1e be 98 74 b1 3d
       -0.11157676 -0.13954987 -0.15487176 0.086648166
000020 f4 94 8d 3d a5 d0 12 be da 12 a4 be 5d 9b 16 bd
       0.06913176 -0.14337404 -0.32045633 -0.03676926
000030 1b 1a af 3a 46 80 41 3d 84 19 09 be 20 08 10 be
       0.001335922 0.04724147 -0.1338864 -0.140656
000040 e0 d9 be 3d 85 a0 fa 3c 7a 98 62 bd 81 0a 21 be
       0.093189 0.03059412 -0.055321194 -0.15726663
000050 3f a7 50 3c 16 97 94 3d b2 6b 7c 3e 20 4c 1a 3e
       0.012735187 0.0725538 0.24650458 0.15068102
000060 8a e2 c2 3c c1 66 67 bc b8 3f 2b 3d 85 80 39 3d
       0.023789663 -0.0141236195 0.041808814 0.04528858
000070 62 66 ac bd 96 81 62 3d 14 bd 20 bd b7 19 2f bb
       -0.084179655 0.055299364 -0.03924282 -0.0026718208
000080 dc b9 79 bc 21 33 b7 bd 0f 5a b3 bc 74 37 4b bc
       -0.015242066 -0.08945299 -0.02189353 -0.012403358
000090 e5 70 55 3d b8 a6 f4 bc ef 45 9e bd 33 63 76 3d
       0.052109618 -0.029864654 -0.077281825 0.060153197
0000a0 2c ab d4 3a 26 61 fa bd 9c 7c 0e be d9 1e 7b bd
       0.001622533 -0.12225561 -0.13914722 -0.061308715
0000b0 ed ae 02 be 30 5f 10 be a8 81 a6 bd d1 e3 1e bc
       -0.12762041 -0.14098811 -0.08130199 -0.00969787
0000c0 31 56 87 3d ee 9c 05 bc 2f b7 0a 3e 48 e8 88 3d
       0.066082366 -0.008155091 0.13546441 0.06684929
0000d0 91 ff 4e be 84 cb bf bc 8c 0d c4 3d 98 bb e7 3d
       -0.20214678 -0.023412473 0.09572896 0.113150775
0000e0 df 51 a7 3d 9c 81 95 bd 22 dd 56 3d 3a 30 cf bd
       0.081699125 -0.07300112 0.052456982 -0.1011662
0000f0 c1 9b b7 3c cb fe ab 3d 7b 5a 53 be 33 75 47 3e
       0.022413136 0.08398207 -0.20639984 0.19478302
000100 25 8b 15 bd e5 90 a9 3c 84 bb 36 3d 58 3a 48 bc
       -0.03650965 0.020698974 0.044612423 -0.0122209415
000110 10 30 86 bc 88 cd f0 bd ee bc 78 3d af 44 95 3e
       -0.01638034 -0.11757952 0.060727052 0.29153964
000120 bb b1 03 3d 33 d5 82 be 2b 16 04 be 9b 1f c2 be
       0.03215192 -0.25553283 -0.12899081 -0.37914738
000130 92 14 85 bc 9b a5 27 3c 66 39 95 3c 98 f7 49 bd
       -0.01624516 0.0102323545 0.018215846 -0.04930839
000140 29 cf 99 be 5b 59 0f bd 5a 56 26 3e 82 4c ec bc
       -0.30040863 -0.034997325 0.16243878 -0.028845076
000150 3d 6c c4 bd 96 7c e9 bd 25 50 bc 3d db b2 01 3e
       -0.09590957 -0.11400716 0.09194974 0.12665884
000160 38 2d 09 3b 22 35 7d 3b cb ec 43 bd 1d dc bd 3d
       0.0020931493 0.0038636406 -0.047833245 0.09270499
000170 a5 2b 5f 3c e5 82 18 be e7 8a 53 3d 66 9c 4c bc
       0.0136212455 -0.14893682 0.05164614 -0.01248846
000180 1a 5d 1e 3d 3e 1c c1 3d f8 da 32 b9 13 31 90 bd
       0.038663007 0.09429215 -0.00017056975 -0.0704061
000190 3d 09 a3 bb 9d 76 96 bd 2b 8a 24 bd 88 52 42 bb
       -0.0049754665 -0.073468424 -0.04017083 -0.0029651243
0001a0 4f 07 8b 3c 0f e3 71 bd 70 6d 20 be 81 48 be bd
       0.016971258 -0.05905443 -0.15666747 -0.09291173
0001b0 1b a1 e2 bd 58 2b 85 bd c7 29 32 be de 35 5f bb
       -0.11065885 -0.06502408 -0.1739875 -0.0034059207
0001c0 ca 5a eb 3d e1 cf d3 bb 12 71 88 bd 96 c5 30 bb
       0.11491926 -0.00646399 -0.066621915 -0.002697324
0001d0 a7 db 6a 3d bf f0 d1 bd 05 8f 61 bd de 09 0b be
       0.057338383 -0.10250997 -0.055068035 -0.13577983
0001e0 fc 2f 18 be 3c 81 47 bd e4 fe 85 3d d0 8c 6a 3d
       -0.14862055 -0.048707232 0.06542757 0.057263196
0001f0 03 6e 9c bd 51 46 af bd ae 64 19 be 5a cf 12 be
       -0.076381706 -0.08558334 -0.14979813 -0.14336911
000200 23 76 54 be 3f 99 90 be 34 dd f8 bc c1 8d b3 bd
       -0.2074819 -0.28241917 -0.030378915 -0.08767272
000210 9e 87 25 be 5a c7 0a be 82 55 99 be 7e 1a ce bd
       -0.16165015 -0.13552609 -0.2994805 -0.10063647
000220 59 d3 eb bd 65 22 aa bd 2c ac dd bd 54 2f 52 be
       -0.11514921 -0.083073415 -0.10823855 -0.20525867
000230 83 cb 86 be a7 da 86 bd f1 9b 2a bd ab 9e e1 bd
       -0.26327142 -0.065846734 -0.041652624 -0.11016592
000240 e0 9a da bd 09 ab 91 be a6 df 71 bd 7d 56 20 3e
       -0.10674071 -0.28450802 -0.05905118 0.15657993
000250 04 ea dd 3d c9 7d 5f 3d 49 91 58 3c b8 9a 09 3d
       0.108356506 0.054563317 0.013218232 0.033594817
000260 6f de f3 3d 52 ed ba 3d ac 4b cf bb d9 ea a8 bc
       0.1190766 0.091272965 -0.0063261595 -0.020619797
000270 63 91 fa bb e5 0e c5 bd 47 ca d7 bd fe 1f eb 3c
       -0.007646726 -0.096219815 -0.10536628 0.028701779
000280 18 cc 66 be a2 3e c6 bd 6c 2a fc bd 19 1a 38 bd
       -0.22538793 -0.09679915 -0.12312779 -0.044946764
000290 7e 37 06 be d7 77 61 be 22 f8 e4 bd 49 dd 22 bd
       -0.13107106 -0.22018372 -0.1118014 -0.039761815
0002a0 f1 03 27 3b 4b ac 11 be 66 64 ef bd 97 d8 07 bd
       0.0025484527 -0.14225881 -0.11689071 -0.03316554
0002b0 bc 3f 28 3e d3 d3 8c 3e 07 d4 0e 3e 94 13 f9 bd
       0.16430563 0.2750536 0.1394807 -0.12161937
0002c0 3b 7c 13 be a0 dc c1 3d a2 18 5e 3c 4d 4c 0b be
       -0.14402859 0.09465909 0.013555678 -0.13603325
0002d0 44 b8 80 bd 38 1c be 3d 67 b3 0a 3e 77 5c 56 bd
       -0.06285146 0.09282726 0.13544999 -0.052334275
0002e0 55 e9 29 be 0d 66 c0 3c a9 2b 6f bd ee e8 8d 3d
       -0.16592915 0.023486162 -0.058391247 0.069291934
0002f0 ba cf a6 bd 96 f4 16 be 68 ea eb bd cb 3e d1 bd
       -0.081450894 -0.1474174 -0.11519319 -0.10217055
000300 6e 12 b9 bd 89 1d 98 3c 2e 3d 99 3d 94 0c 41 be
       -0.09036718 0.018568771 0.07482372 -0.18852454
000310 2b 44 f3 bd 5b d8 f5 bd 37 c9 a7 bc 9a 4a 6d bc
       -0.118782364 -0.12004157 -0.020481689 -0.014483118
000320 14 6a 90 be d6 94 1c be fd 50 ab 3d 23 c5 d5 3d
       -0.2820593 -0.15291151 0.08365057 0.104379915
000330 9c 57 c2 bc ce 05 89 be 4c 09 78 bc 2b c7 e6 3d
       -0.023723416 -0.2676224 -0.015138935 0.11268457
000340 98 fd 0c 3e 36 94 04 be 7d 0a 88 be ad e0 a9 3d
       0.13768613 -0.12947163 -0.26570502 0.08294807
000350 94 06 2c 3d 71 c9 f2 bc 53 40 d5 bc 54 47 26 be
       0.04199846 -0.02963707 -0.026031649 -0.16238147
000360 9e 89 e7 3d 6d 5d 77 3d df e7 53 3c 57 09 dc bd
       0.11305545 0.060391832 0.0129337 -0.10743969
000370 79 88 28 be 16 be 8f 3d 8d 4e 39 3d 95 4f 01 3d
       -0.1645831 0.07018678 0.045240927 0.031570036
000380 dd a5 aa bd e3 26 12 be 57 52 b7 bd 46 77 82 bc
       -0.08332417 -0.14272647 -0.08951252 -0.015926015
000390 9f eb 10 be 56 65 ac bd de 53 9f bc 3c 5b c4 bd
       -0.14152382 -0.08417766 -0.01944917 -0.09587714
0003a0 02 f5 45 bd 9d c9 6a bd dc f8 f5 bd 54 0e 39 3d
       -0.04832936 -0.05732118 -0.12010357 0.04517968
0003b0 0d 1a 94 3d 6c 95 46 3d 60 95 8a bd cc bd fe bd
       0.07231531 0.048482344 -0.06766772 -0.12438545
0003c0 e5 fb 6c bd c9 a5 be 3c 86 cd 00 3c 29 78 df 3a
       -0.057857413 0.023272412 0.007861501 0.001704936
0003d0 59 07 41 be 53 e6 22 be 3b 2b 82 3d 7b 48 6a bd
       -0.18850459 -0.15908174 0.06355902 -0.05719803
0003e0 35 ab 61 bc 83 ee 26 be 4e 25 4e be 0f d8 0f 3c
       -0.013773729 -0.16301923 -0.20131418 0.00877954
0003f0 ac 10 f7 bd fd 15 84 bd 6c aa d2 bd a3 e3 2d be
       -0.12063727 -0.064495064 -0.10286412 -0.16981368

conv2.bias f4 [32]
000000 6b 8e b1 bd f1 d3 2e be 30 6e 32 be 50 6d 3a be
       -0.08669742 -0.17073037 -0.17424846 -0.18205762
000010 2d 5c ef bd e8 87 b8 bd cc de 0a be 0b 2b 77 be
       -0.11687503 -0.09010297 -0.13561553 -0.24137513
000020 36 2a d3 bd 35 f9 d4 bd cd fc b0 3d 1d e6 52 bd
       -0.103107855 -0.10399095 0.08641968 -0.051488984
000030 3c 49 ad bb 2d 97 e5 bd 97 a3 fc bd 2e 25 0e be
       -0.0052882712 -0.11210475 -0.1233589 -0.1388137
000040 00 ce 95 bd 61 d8 9f bd 2a 2c 48 bd ff 39 8b bd
       -0.07314682 -0.07804943 -0.048870243 -0.06798171
000050 b5 cf 1c be 39 5b a1 bd a5 9e 91 bd 00 3f 2c bd
       -0.15313609 -0.078787275 -0.07110337 -0.04205227
000060 55 87 53 be 3b f2 fe bd 74 73 91 3d a0 ba b3 bd
       -0.20657094 -0.124485455 0.07102099 -0.0877583
000070 a7 f5 18 3b 32 52 a1 bd d5 52 31 be 99 e7 fa bd
       0.002333978 -0.07877006 -0.17316754 -0.12251205

fc1.weight f4 [120, 1568]
000000 ba 89 65 3d 05 63 e7 3d b9 02 44 3d 6b f9 2b 3d
       0.05603955 0.11298183 0.04785416 0.04198591
000010 07 02 e7 bc 72 b9 3c 3d 90 61 e1 3c fc 04 4e bb
       -0.028199209 0.046075292 0.027512342 -0.0031436076
000020 2a ac 09 3c e0 f2 16 bb d3 95 94 bc 04 fd a1 bc
       0.0084028635 -0.0023032948 -0.018137848 -0.019773968
000030 49 fc 85 bd 67 5f d5 3d fb 3e 53 bd f8 94 db bd
       -0.0654226 0.10418587 -0.051573735 -0.10721773
000040 0a 96 67 bd 10 ad 8d bd 31 1a 27 bd a7 23 2f bd
       -0.056539573 -0.06917775 -0.040796462 -0.04275861
000050 86 62 1b 3e 82 7c b8 3c 9d 9a 98 bd aa e4 88 3e
       0.15174302 0.022520307 -0.07451365 0.26736957
000060 48 90 60 3d 1c da b5 3c af 67 95 3c 27 0d 40 3e
       0.054825097 0.02219873 0.018237917 0.18755017
000070 df 18 c8 3c 3c 1c 36 3d c4 89 12 3e e8 fc 73 3d
       0.024425922 0.04446052 0.14310366 0.059567362
000080 fc 6e fa 3d 2f f7 c9 bc fa d0 a5 3d 85 65 49 3d
       0.122282 -0.024654 0.080965 0.049169082
000090 d6 22 f5 bd fd 6e a9 bd 20 62 04 bb b0 5c 31 bd
       -0.11969535 -0.082731225 -0.0020200089 -0.043301284
0000a0 d7 5d 0d 3d 0d 12 f1 3c cc de af bd c0 43 1e bd
       0.03451332 0.029427553 -0.08587417 -0.03863883
0000b0 96 31 d8 bc 93 97 87 bd 23 96 ca bd b0 65 16 be
       -0.026390832 -0.06620707 -0.098919176 -0.14687228
0000c0 db 6c 8a 3c f1 81 a2 3d d9 cc d1 3c 19 3b 3c 3c
       0.01689761 0.079349406 0.025610374 0.011488699
0000d0 70 ef dd bd e7 96 f5 3d 96 c9 82 3a 70 e4 43 3d
       -0.10836685 0.11991673 0.000997829 0.047825277
0000e0 d3 8f d9 3b 0c 2b b8 3c 3a 42 58 bd f5 6e 12 bd
       0.0066394596 0.022481464 -0.052797534 -0.035750348
0000f0 79 c3 18 bc 93 78 0b 3e 15 44 a3 3b 2f 20 26 bc
       -0.009323948 0.13620214 0.0049824812 -0.010139509
000100 19 b3 11 be e5 23 9f be d6 22 24 bd c0 64 68 3c
       -0.14228477 -0.31082073 -0.040072285 0.014184177
000110 41 40 33 3e fc 60 3b 3d 95 6f d9 3d 96 99 90 3d
       0.1750498 0.04574679 0.10616986 0.07060544
000120 ea c1 aa bd 4b 8c 8c bd ca 8e bf bd 83 17 9c 3d
       -0.083377674 -0.06862696 -0.09353407 0.07621672
000130 28 d8 ca bc c4 11 da bc cd 98 8a bc 6d 6f 38 bc
       -0.024761274 -0.0266198 -0.016918564 -0.011257035
000140 fb e1 1f be 46 f4 0b be 7c eb 51 bd 11 17 38 3d
       -0.15613548 -0.13667402 -0.051249966 0.044943873
000150 56 a0 c2 bb 67 4e c5 bb 26 ef 97 3d 02 8a 08 3d
       -0.0059395237 -0.006021309 0.07418661 0.03333474
000160 67 d1 52 3d eb db ce bd c4 2f df 3d 81 69 b0 bd
       0.051469233 -0.1010054 0.108977824 -0.08613873
000170 e3 ce 34 bd 3c 7b e7 3d 4f a7 65 3d 43 c6 4b bd
       -0.044142615 0.11302802 0.05606776 -0.049749624
000180 38 a9 a7 bd 28 28 bb 3d 7c 29 3d 3d 5c b9 85 3d
       -0.08186573 0.091385186 0.04618214 0.06529495
000190 c3 cd 50 bd 02 ab c2 bd 36 4b a3 3b 09 6d dc 3c
       -0.05097748 -0.095052734 0.004983331 0.02690746
0001a0 05 f2 86 3c cf 6b c2 3d e2 a3 11 bd 6a a3 fd bc
       0.016472826 0.09493219 -0.03555668 -0.030961711
0001b0 49 5a b3 3d 90 c7 1b bd 5d ed e9 3d 85 85 ee 3c
       0.08757455 -0.038032115 0.114222266 0.029116401
0001c0 a5 06 1f 3d 35 ce 18 be 42 80 13 be d7 08 ae 3c
       0.038824696 -0.14922412 -0.14404395 0.02124445
0001d0 44 d1 32 3e 8d 53 8d 3c 9d 4b 6a 3d fe 61 21 bd
       0.17462641 0.017251754 0.057201017 -0.039400093
0001e0 54 9e 68 be 1d ca 27 be 61 6d bd 3d 37 04 52 3d
       -0.22716647 -0.16385694 0.09249378 0.05127355
0001f0 ff 11 90 bc a4 b9 a4 bc de cf 16 bd 80 db e8 bd
       -0.017586706 -0.020108052 -0.03681933 -0.11369991
000200 23 63 dd bd e2 62 63 3e 68 98 0b 3e b1 1f 56 bd
       -0.108099245 0.2220569 0.13632357 -0.052276317
000210 af d9 7c bd 59 96 15 3d 6e 05 db bc c0 e4 0b be
       -0.061731037 0.036520336 -0.026735988 -0.1366148
000220 ff cb c4 bd 07 c1 2a 3d 58 e8 72 bd c5 47 73 bb
       -0.09609222 0.04168799 -0.05930361 -0.0037121635
000230 d8 ed db 3d 3d 2a ac 3d f2 bc f0 3c 7f 4f 3b bd
       0.107387245 0.08406494 0.029386971 -0.04573011
000240 47 b0 38 3c e1 9b 68 3d 83 5d 04 bd 07 fa 81 bb
       0.011272497 0.056789283 -0.032315742 -0.003966573
000250 76 be d6 ba b6 f6 87 bc 0f cf 1a 3c d7 62 29 bd
       -0.0016383666 -0.016597133 0.009448781 -0.041354027
000260 13 7e 9d bc 2b ec 1f bd cc 52 98 3d df 21 33 3d
       -0.019225156 -0.039043587 0.07437667 0.043733474
000270 62 b6 88 bd 86 56 35 3d 9d 52 2e 3d e5 9b 54 3d
       -0.06675412 0.04427197 0.042559255 0.051906485
000280 65 e0 d1 3c 92 94 04 3d 74 1d da bd 3b 38 a9 bd
       0.025619695 0.03236825 -0.10650149 -0.08262678
000290 6f 4d 07 be 2a 6d 95 bc 03 94 cf bc ca ad 27 bd
       -0.13213132 -0.01824053 -0.025339132 -0.040937223
0002a0 c3 08 7c bd be c1 f4 bd 25 bb 63 3e 0e 54 11 3b
       -0.061531793 -0.11951016 0.22239359 0.0022175345
0002b0 ed 6a 09 be a8 7f 1a be 6c c6 85 3d bf f7 ce bc
       -0.13419695 -0.1508776 0.065319866 -0.025264619
0002c0 72 2b 3b bc db c2 2a 3e 21 4b 1e 3e 6d 6d b2 bd
       -0.011423932 0.16675894 0.15458347 -0.087122776
0002d0 0f 99 e2 bc 93 26 7b 3b 64 db d9 3c 41 7e 3a 3d
       -0.027660875 0.0038322553 0.026593871 0.04553056
0002e0 32 88 3d bc b2 20 e6 3a 38 bb c0 3b c4 53 3f 3d
       -0.011568116 0.0017557351 0.005881693 0.046710745
0002f0 03 b4 81 bd 83 43 7c bd c8 14 59 3c 4a 78 4e 3d
       -0.06333163 -0.06158782 0.013249584 0.050407685
000300 23 f9 a4 3c 13 77 37 bd ee 72 bd 3c 4b 14 49 3d
       0.020138329 -0.044791292 0.023126092 0.04909162
000310 1c 40 e2 bc 94 bb 81 3b be bb c7 3c fe f6 a6 3c
       -0.02761846 0.0039591286 0.024381515 0.020381447
000320 95 66 41 3d f6 23 6d bd da 11 42 3d 89 57 b9 bc
       0.04721697 -0.057895623 0.047380306 -0.022624748
000330 b4 89 10 3d 89 05 30 3c 41 e7 4d 3d a7 00 bc ba
       0.035287574 0.010743507 0.05026937 -0.0014343456
000340 25 63 42 bd 34 03 9f bc 47 18 a7 bd 0f f3 49 3d
       -0.047457833 -0.019410707 -0.081589274 0.049304064
000350 fd 7e 28 3d 1f f2 d8 bb 41 48 c9 bb 5f dc 29 bd
       0.04113673 -0.00662066 -0.0061426465 -0.041469928
000360 59 94 76 3d f6 c0 19 bd b9 bb 8a 3c d7 e1 6d 3d
       0.06020007 -0.037537538 0.016935216 0.058076706
000370 86 18 11 3d 22 35 0c bd 75 96 19 bd 2e 67 d5 3d
       0.035423778 -0.03423036 -0.037497003 0.104200706
000380 b4 4f 5c 3d bd cc d2 bc e9 b8 a5 3c 24 71 b7 3c
       0.05378695 -0.025732392 0.020229774 0.022392817
000390 19 d0 d4 ba 6d 29 0e bd d2 eb af 3d 8e 63 52 3d
       -0.0016236334 -0.034707475 0.08589901 0.051364474
0003a0 37 a7 23 3d b9 24 35 3d fd 23 f8 3c 12 2d 6c bd
       0.03995439 0.044224475 0.030290598 -0.05766017
0003b0 e3 76 80 bd 4b b2 70 bc dd a5 f7 3c ef d4 13 3d
       -0.06272676 -0.014690946 0.030230457 0.03609174
0003c0 36 3b 30 3c 26 fd 48 bc c9 68 9a 3c 11 53 c1 bb
       0.0107563045 -0.012267387 0.018848794 -0.005899795
0003d0 5d 1e 92 3c b3 f6 00 bd 10 16 37 3c 6b ed e5 3c
       0.017836744 -0.03148527 0.011174694 0.028067311
0003e0 82 dd 8b 3d 61 b0 c4 3d da 88 a6 3d 9d a0 2c 3d
       0.06829359 0.09603954 0.08131571 0.04214536
0003f0 23 45 49 bc 7e 7c 2b bd d3 dd 8a 3d 80 8e 1e bc
       -0.01228455 -0.041866772 0.06780591 -0.009677529

fc1.bias f4 [120]
000000 cd 3c 2d bc 53 80 38 3c cd a0 88 bc 44 74 e5 bb
       -0.010573578 0.011261064 -0.016678238 -0.0070023853
000010 53 f6 0d 3c 47 37 1e 3d 2d e6 e8 bc 00 f8 e4 bb
       0.008664685 0.038626935 -0.028430069 -0.0069875717
000020 b3 77 e5 bc b7 47 4f bd a3 90 b1 bb 99 5f 2e 3c
       -0.028011179 -0.050605502 -0.0054188534 0.010642909
000030 20 9b 19 bc a5 08 72 bd 5e 95 ab bc 39 28 7a bd
       -0.009375364 -0.059090275 -0.020945247 -0.061073516
000040 26 b5 96 bd 09 14 aa bc ff 81 d7 bc 39 44 df bc
       -0.0735877 -0.020761507 -0.026307104 -0.02725421
000050 3e dc 15 3b 66 77 58 3c d1 6b 00 3d 73 ae 40 3c
       0.002286687 0.013212061 0.03135282 0.011760342
000060 b5 90 83 bc 4e 48 9b 3c 41 15 db 3c 8b 7f a0 bc
       -0.016060213 0.018955376 0.026743533 -0.019592067
000070 6c 71 67 3d c9 11 7e 3c 7e 12 74 bc 9d 8b c3 ba
       0.056504652 0.01550717 -0.014896987 -0.0014918927
000080 f8 a8 fb bc d4 23 d4 3b 5f d2 35 bb 0e 8a 08 3c
       -0.030720219 0.0064739976 -0.00277438 0.008333696
000090 c0 37 7e 3b 0f b8 c4 bd 40 bc e9 bc 0d 89 aa bc
       0.0038790554 -0.09605419 -0.028532147 -0.020817304
0000a0 23 f2 08 3c 8a f8 e0 bb 1c b4 d7 3c 85 29 da 3b
       0.008358511 -0.0068655657 0.026331 0.0066577815
0000b0 16 d1 87 bd 33 b2 9d bb 8a a9 20 3d 8c 4b b3 3b
       -0.06631677 -0.004812503 0.039224185 0.0054716524
0000c0 64 e8 e1 bc 43 b7 0a 3c 47 09 8d bb d3 5e b9 bb
       -0.027576633 0.008466545 -0.0043040845 -0.005657056
0000d0 be 5e d8 bc 04 d9 00 bd b2 4c 10 bd 68 32 43 bc
       -0.026412364 -0.031456962 -0.035229392 -0.011913873
0000e0 bd 57 ea 3b 6d 95 24 bc 5f af cb 3b 7d f5 38 bc
       0.0071515725 -0.0100453915 0.006215974 -0.011288998
0000f0 f6 35 dd bb cc fd 63 bd ad 83 54 bc 5e 35 0f bd
       -0.0067508174 -0.05566196 -0.012970847 -0.034963004
000100 b4 e6 14 bd 22 63 02 bd 7d 28 81 bd 48 57 04 bd
       -0.03635283 -0.03183282 -0.06306551 -0.0323098
000110 30 94 6f bd 9b 14 da bc 94 44 8c 3c 88 93 45 3d
       -0.058490932 -0.026621154 0.017122544 0.0482364
000120 bf 1a 91 3c 93 d7 0b bc 4f 74 92 3c b4 7a ca 3b
       0.017712949 -0.008535284 0.017877726 0.006179178
000130 71 f6 98 3b 00 dd e9 bc ad 04 07 bd d4 d1 24 bc
       0.00466805 -0.028547764 -0.032963444 -0.010059793
000140 89 83 2e bd d9 ba 44 bd d8 b0 a7 bc 6e 64 b2 bb
       -0.04260591 -0.048029754 -0.020470068 -0.005444101
000150 22 20 82 bc 84 e8 8a bd 89 2a c7 bc e2 31 05 3c
       -0.015884463 -0.0678263 -0.024312275 0.008129569
000160 fe d1 9f bc c9 2d b5 bc aa f3 40 bd fd e0 89 3c
       -0.019509312 -0.022116559 -0.047107376 0.016830916
000170 66 aa b0 bc 0b 37 9d bd b0 9f 18 bd 29 9c 66 3b
       -0.021565627 -0.07676514 -0.037261665 0.0035188294
000180 a6 c7 0d 3a d4 41 a5 bc 40 38 6e 3b 59 27 e0 bc
       0.0005408473 -0.02017299 0.0036349446 -0.027362512
000190 5b 90 c3 bc 2c bf 8f bd cd c6 62 bd 0f 3c 11 bd
       -0.023872545 -0.07018885 -0.055365372 -0.035457667
0001a0 63 c6 54 bd 3b 62 15 3c 97 ed 2b bc c5 8d ab bd
       -0.05194701 0.009117658 -0.010493658 -0.0837665
0001b0 0c fc 86 bd e3 a2 1a bd ca d5 e4 bc 48 c6 88 bb
       -0.06591043 -0.037752997 -0.027933974 -0.0041740276
0001c0 da 26 2f bd 6a ca 42 bd 8a 1d 17 3b 62 1e ea b9
       -0.04276166 -0.04755632 0.0023058378 -0.00044654595
0001d0 37 19 87 bd 1f c9 c0 bb aa 68 8d bc 69 a6 f6 bc
       -0.06596606 -0.0058833505 -0.017261822 -0.030108647

fc2.weight f4 [84, 120]
000000 42 4c e8 bd 99 69 49 bd c1 4f ae bd 30 df ca 3c
       -0.1134267 -0.04917297 -0.085113056 0.024764627
000010 38 88 be bc bb 26 72 bc 1a 3b 4d bd 23 95 48 bd
       -0.023258314 -0.014779742 -0.05010519 -0.048970353
000020 32 a8 06 bd 1f c5 b6 3d 00 92 17 bb d2 a6 e0 3c
       -0.032875247 0.089243166 -0.0023127794 0.027423296
000030 18 fc 4d 3c fa 8d 37 bd 07 df 90 bd f5 5c af 3b
       0.012572311 -0.044813134 -0.07073789 0.0053516575
000040 47 99 b3 bd 87 93 91 bd 4c 14 02 bd 67 2f 94 bd
       -0.0876947 -0.07108217 -0.031757638 -0.07235604
000050 07 18 fc ba 80 d3 58 3d 98 3a 2f 3d 34 87 4d 3d
       -0.0019233235 0.052936077 0.04278049 0.050177768
000060 64 30 96 3d 07 ff b8 bd 33 d8 f1 bc fe c3 a8 3d
       0.073334485 -0.090330176 -0.029522037 0.082405075
000070 62 c7 8e bc c4 68 cc bc cc 5d 2c 3d 7c 79 ee 3c
       -0.017429058 -0.0249523 0.04208164 0.029110663
000080 74 30 fd 3c fc 63 b2 bc c0 7d a8 bc eb 99 07 be
       0.030906893 -0.021776192 -0.020567775 -0.13242309
000090 60 61 1d ba cb 43 f8 3b 55 ee 96 bd 24 14 71 bc
       -0.0006003585 0.007576441 -0.07369677 -0.014714275
0000a0 20 6f 60 3b 51 1a 77 3d 21 b4 86 3b 04 2c d9 bd
       0.0034245923 0.06032783 0.0041108285 -0.106040984
0000b0 e0 04 d7 bd f4 16 c7 bd d6 0a fd 3c 6c b4 42 3d
       -0.10498977 -0.09721175 0.030888956 0.047535345
0000c0 17 a9 5a bd 64 ae a7 3d 28 31 73 bd aa 1b 45 bb
       -0.053383913 0.08187559 -0.05937305 -0.0030076304
0000d0 04 1d 98 bd 25 3a 00 bd 61 74 9d bc 5a d4 07 3d
       -0.07427409 -0.03130545 -0.019220533 0.0331615
0000e0 22 dc 8f bd fc bf 9e bd 5b 34 c9 bc 68 3c 69 3d
       -0.07024409 -0.07751462 -0.024561098 0.056942374
0000f0 fd b1 af bd 95 dd f3 bc 98 70 b1 bd 66 0e c1 3a
       -0.085788704 -0.029768744 -0.08664054 0.0014729023
000100 a7 16 52 bd f9 65 12 be b5 1e 14 bd 1c d4 5a 3c
       -0.051291134 -0.14296712 -0.036162097 0.013356235
000110 34 53 c5 bd 50 0d c5 bb 11 98 2e bd 8a e5 0a be
       -0.0963501 -0.00601355 -0.04262549 -0.13564125
000120 09 c9 d6 3c 34 cf 55 3d 84 03 9b bc 18 24 9b 3d
       0.026218908 0.052199557 -0.018922575 0.07575244
000130 5b ce 98 bd 64 b2 6a bd e0 c3 ea bb 17 47 cb bb
       -0.07461234 -0.057299033 -0.0071644634 -0.006203543
000140 24 f1 3f bd cb 34 f8 3b 1c 1c 99 bd a8 1d 7c 3c
       -0.04686083 0.007574653 -0.074760646 0.01538793
000150 7d ce 11 be 09 99 90 bc 85 fc d3 bd ec af 81 bd
       -0.14238925 -0.017651098 -0.10350899 -0.063323826
000160 dd 99 de bd 1f 82 ca bd 3a c2 d2 bc 65 2f 4b bd
       -0.10869191 -0.098881 -0.02572738 -0.049605746
000170 c0 f3 a2 bb 7a 24 5d 3d 1b 06 15 be 8b 0f 06 bd
       -0.004972905 0.053989865 -0.1455311 -0.032729667
000180 72 50 19 bd bc e8 80 bd dd ac 1b bd d0 d5 0e bc
       -0.037430234 -0.062943906 -0.038006652 -0.008717969
000190 01 e4 6a bd 97 1f 09 3d 68 2b db bc b1 40 91 bd
       -0.057346348 0.033477392 -0.026754096 -0.07092417
0001a0 4c 2e a3 bd 6c 28 25 3d 4f 80 a0 bd 34 a8 9d bc
       -0.07967815 0.040321752 -0.07836973 -0.019245245
0001b0 5c 4d f5 3c ad 8e c6 bd 61 e1 2e be 90 d1 b3 bd
       0.029944114 -0.09695182 -0.17078163 -0.08780205
0001c0 70 08 80 bc cd 08 82 3b 2e 49 57 bd e0 f7 ad bc
       -0.015629023 0.0039683343 -0.052560024 -0.02123636
0001d0 c6 d7 75 bd 22 41 6f bd 7e 82 6a bd 14 23 e0 3c
       -0.06002023 -0.058411725 -0.057253353 0.027360477
0001e0 1b e1 9b bd 01 da 1e bd 12 65 78 3d ac 45 54 3d
       -0.07611295 -0.038782123 0.060643263 0.051824257
0001f0 67 2e 0b bd 06 b2 18 bd b0 43 d1 bc e2 bc 83 3d
       -0.0339798 -0.03727915 -0.025544971 0.06432511
000200 95 41 40 bd d1 6e cb bd 08 36 64 3d 00 7c e2 39
       -0.046937544 -0.09933246 0.05571559 0.00043198466
000210 0c 67 85 bd 06 07 38 3d c1 8b a2 bd ba 37 81 3d
       -0.06513795 0.044928573 -0.07936812 0.06309457
000220 7b a9 8c bc 4a 97 19 bd a7 3c 74 bd 78 e2 8a 3d
       -0.017170658 -0.037497796 -0.059628155 0.06781477
000230 24 47 da bd f6 c8 38 bd 8f 7f 87 bd 84 c8 9b bd
       -0.106581 -0.045113526 -0.06616127 -0.07606605
000240 a8 c9 95 3d ad 8d b9 bd 00 4c fd 38 40 e0 c1 bb
       0.073138535 -0.09060226 0.00012078136 -0.0059166253
000250 99 9a 25 bd ed d4 92 3c 95 41 89 3d 83 c4 92 bd
       -0.04043064 0.017923797 0.06701962 -0.07166388
000260 02 08 85 bd 4c 2b 01 3d 1c 38 15 3d 3b ba 24 bb
       -0.06495668 0.03153543 0.036430463 -0.0025135416
000270 73 2b 82 3c 89 26 a8 bd 20 c5 ae ba 0a 42 ce 3c
       0.015889859 -0.08210475 -0.0013333894 0.025177974
000280 96 55 b1 3d 65 4c 48 3d 7d 01 20 bd 65 14 8d 3c
       0.08658902 0.04890098 -0.03906392 0.017221639
000290 e9 11 93 bd e7 97 7a bd 9a 6c a7 bd f3 ad 8a bd
       -0.071811505 -0.06118002 -0.08175011 -0.067714594
0002a0 ee 9a d8 bc 2e 90 90 3d 2f 17 13 bd 64 bc 3d bd
       -0.026441064 0.0705875 -0.03591078 -0.04632224
0002b0 4c 57 9e 3c 3c 62 90 bc 2a 75 93 bd 0c 99 43 3d
       0.019328736 -0.017624967 -0.07200082 0.04775338
0002c0 80 cd 5b bd 9a 0c 8b 3d 0c c7 a0 bd 3c 88 3d 3d
       -0.053662777 0.06789513 -0.07850465 0.0462725
0002d0 f4 b9 ad bc ab a3 20 3a 88 69 99 bd 40 cf cb bd
       -0.021206833 0.0006127904 -0.074908316 -0.09951639
0002e0 19 46 89 bc aa f8 a2 bd c6 35 02 bd ff 1d 07 3d
       -0.016757058 -0.07957585 -0.031789564 0.03298759
0002f0 0a a4 2f bd 50 9c 40 3d 50 33 ec bb e8 e7 8d 3d
       -0.04288105 0.04702407 -0.0072082654 0.06928998
000300 17 dc 05 bd 13 bc 70 bd a3 08 36 3d f4 4a 9d 3d
       -0.032680597 -0.05877311 0.04444183 0.07680312
000310 15 3f 19 bd c8 90 e7 3c a0 f4 ae bd e8 b9 9b bd
       -0.037413675 0.02826728 -0.08542752 -0.07603818
000320 c0 f5 4a 3b f7 72 8c 3d b3 20 81 bd 28 2b 7b 3d
       0.0030969232 0.06857865 -0.06305065 0.061320454
000330 40 75 7c bc 11 6b af bc 3f bc 89 3d d5 34 8d bd
       -0.015408814 -0.021413358 0.06725358 -0.068948425
000340 29 ea 1b bc a2 05 8f bd ee 72 19 bd a0 8c e2 bc
       -0.009516277 -0.06983496 -0.03746312 -0.027654946
000350 e1 83 b1 bd 3c 78 22 3d 58 b6 b8 bd fc 5f 2a 3d
       -0.08667732 0.039665446 -0.09019154 0.041595444
000360 01 80 f0 3b 16 87 19 bd 41 b1 6f bd 80 45 80 bb
       0.007339478 -0.037482344 -0.058518652 -0.003914535
000370 d8 2d 0b 3d 7a 40 52 bd 30 21 b2 3b 3c 27 95 3d
       0.033979267 -0.05133102 0.005436085 0.07282874
000380 38 4e 6f 3c 64 38 b3 bc 9f 08 8f bd 89 c1 e3 bd
       0.014606051 -0.021877475 -0.06984066 -0.11120898
000390 88 4a ad 3b fd aa 06 bd 2b de 21 bd 16 57 4c bd
       0.005288426 -0.03287791 -0.039518517 -0.04988774
0003a0 fa a7 c3 3b eb d4 ad bc 60 bc 48 3c 80 86 7a 3b
       0.005970952 -0.021219691 0.012251943 0.003822714
0003b0 44 05 af 3d b0 4d 9b 3d 45 a3 9b 3c 8e eb d7 bd
       0.08545926 0.07583177 0.018998751 -0.10542975
0003c0 36 fc 6f 3d 8a 71 af 3d 3e e8 b5 bd 12 c6 93 3d
       0.058590136 0.08566578 -0.08882187 0.07215513
0003d0 5e 3d a2 bd 0a d9 11 3c a8 5b a4 bd 02 39 81 3d
       -0.07921861 0.008901844 -0.080252945 0.063097015
0003e0 95 a6 84 bd f8 b2 60 bb f2 11 90 bd a0 96 dc bb
       -0.064770855 -0.0034286361 -0.07034673 -0.006731823
0003f0 1e bc a6 3d b8 15 2c be 84 e5 27 3d 3f 94 bf 3e
       0.08141349 -0.1680516 0.040990368 0.3741779

fc2.bias f4 [84]
000000 38 38 1a bc a7 b6 e3 bd 40 0d e8 bd 0a 73 d7 3c
       -0.009412818 -0.111188225 -0.11330652 0.026299972
000010 3c 1a 80 3c 4a ce a9 bd c3 01 ad bd 3f a8 d5 bd
       0.01563751 -0.082913 -0.08447602 -0.10432481
000020 06 5c 09 be 50 e9 ac bd 02 96 ad bd ac 90 22 bd
       -0.1341401 -0.08442938 -0.08475877 -0.03968875
000030 a1 ee 90 bd fe ef 10 be b8 04 c0 bc a9 d3 95 bc
       -0.07076765 -0.1415405 -0.02343975 -0.018289404
000040 0d 3c 83 3d ce 24 c8 bd ad 89 f0 bd 57 5f 29 be
       0.06407938 -0.09772645 -0.117450096 -0.16540276
000050 64 a2 b0 bc 67 a8 8d 3c 79 e6 41 3c a3 32 8e 3c
       -0.021561809 0.017292215 0.011834734 0.01735813
000060 fa 63 c5 bd b7 bd 10 be 40 70 d1 bd 24 9a 4c bd
       -0.0963821 -0.1413487 -0.10226488 -0.049951687
000070 6e 60 bd bd 7a 3e 4c be 97 a0 f8 bc c6 11 4e 3c
       -0.09246908 -0.19945708 -0.030350013 0.01257748
000080 19 38 96 bd 33 de 96 bd bf 5b ec bd 2a aa fc bd
       -0.073349185 -0.073666 -0.11540937 -0.12337144
000090 54 8e 35 3d 4c f3 26 be d1 44 74 3c c5 f8 2c be
       0.044325188 -0.16303748 0.014908985 -0.16891773
0000a0 3b ea 98 bd 45 f3 98 3d 10 62 94 3c 43 cc 62 3b
       -0.07466551 0.07468275 0.018113166 0.0034606613
0000b0 3b ea d9 bd 87 2e bd bb 3e 4a 80 3d 71 fd 4b bd
       -0.10640379 -0.0057733688 0.062641606 -0.049802247
0000c0 23 0a 0f bc 58 9d f8 bd 76 b7 a1 ba bd 0d 92 3d
       -0.008730444 -0.12139386 -0.0012338001 0.071315266
0000d0 f2 27 a6 bc 0e 2d 1d 3c 67 30 43 bb 18 1d 95 bd
       -0.02028272 0.009593261 -0.0029783489 -0.0728094
0000e0 d2 f2 30 bd 88 0a ae bb 5e 50 6b bc 20 ad 5e 3b
       -0.04320032 -0.005311314 -0.014362423 0.0033977702
0000f0 64 7d 41 3d 92 77 17 be 3d c4 69 bd 66 72 05 be
       0.047238722 -0.14791706 -0.057071913 -0.13031921
000100 3e 2b f1 bc f4 b3 66 3a fc f2 d3 bd d6 2e ea bd
       -0.029439565 0.0008800619 -0.1034908 -0.114347145
000110 3b 71 32 bd 6e e4 14 be 30 20 de 3b c0 6a c9 bc
       -0.043565016 -0.14540264 0.0067787394 -0.024587035
000120 0e e8 e9 3c bb c3 d0 bc 7c 5d 96 bd 2a b1 b1 3b
       0.028553035 -0.025483957 -0.073420495 0.005422731
000130 a6 44 48 bd db ab 6d bd 7e 0b 14 be 2f c4 88 ba
       -0.048893593 -0.058025222 -0.14457509 -0.0010434444
000140 c3 00 19 be 84 b1 0a be 01 2b a7 3d 92 61 16 be
       -0.14941697 -0.1354428 0.08162499 -0.14685658

fc3.weight f4 [10, 84]
000000 fe 6f e5 bc df 4d 24 bd 59 16 9e bc ce a6 4d bc
       -0.028007504 -0.040113326 -0.019297766 -0.012551976
000010 1f 8e 48 bd 1c 4c 4c 3b b1 ef d0 bb 3f 32 af 3d
       -0.048963662 0.0031173294 -0.0063762297 0.085545056
000020 3e 44 8f 3d 3a be 53 3d 91 7f b9 bd 00 4f 06 3d
       0.06995438 0.051695086 -0.090575345 0.032790184
000030 42 2f 8b bd 84 f2 0f 3d 49 b6 35 bd db ab d0 3d
       -0.06796123 0.03514339 -0.044363294 0.10189029
000040 36 e8 d2 bc af f3 b3 bd 57 9f 98 3d 65 19 d9 bc
       -0.025745492 -0.08786713 0.07452267 -0.026501367
000050 f6 fd a7 3d 71 9b 26 bc d2 35 f6 bb 95 c4 2a 3d
       0.08202736 -0.010168896 -0.00751374 0.04169138
000060 9d c9 44 3d 6b e6 c7 bd e6 ef fd 3c aa 45 36 bd
       0.048043836 -0.097607456 0.030998182 -0.04450003
000070 be 92 76 3c 47 17 1a 3d e9 fb 1e bd f3 8d 12 bb
       0.0150496345 0.037619855 -0.03881446 -0.002236244
000080 f0 74 01 bd 4d b6 d8 3c 70 d5 75 3c f8 ca b2 bb
       -0.03160566 0.026454115 0.015004501 -0.0054563247
000090 c1 0f 97 3d cf f6 9c 3d 90 01 1f bd 32 21 80 bb
       0.07376052 0.076642625 -0.03881985 -0.003910207
0000a0 6b 0e 01 3e f8 a0 13 bc 3d b0 57 3d 64 e4 56 3d
       0.12603156 -0.009010546 0.05265831 0.052463904
0000b0 b7 31 8e 3c 18 3f 87 bc 58 a6 00 3d 84 bc 9d 3d
       0.01735769 -0.016509578 0.031408638 0.07701972
0000c0 5d e1 a8 3c 80 38 cd bc e4 52 31 bd 38 9f bc bd
       0.020615274 -0.025051355 -0.04329194 -0.09210056
0000d0 60 dc e2 3c 09 14 a0 3c e5 0d f0 3d a9 59 9f 3c
       0.027692974 0.019540804 0.117214 0.019451933
0000e0 83 66 11 3d d2 27 a4 bd 74 38 7e bd 55 e2 c6 bc
       0.035498153 -0.080154076 -0.062065557 -0.024277845
0000f0 50 06 61 3c 61 63 f3 bc 0d 72 ad 3c dc 67 03 3d
       0.013734415 -0.029710473 0.021172548 0.03208147
000100 17 f2 90 bd cb 1a 18 be f4 69 08 3e cc 54 05 bb
       -0.07077425 -0.1485397 0.13321668 -0.0020344732
000110 f0 1a 96 bb fc 2c 90 bc 96 e3 5e 3d 2e 91 d5 bd
       -0.004580848 -0.017599575 0.05441626 -0.104280815
000120 91 19 92 3d 34 97 b5 3d ef 29 5a 3d 22 1b 4b 3d
       0.07133783 0.0886673 0.053262647 0.049586423
000130 cc b1 99 3b 86 1c 40 bd 38 e4 53 bb 99 c5 5b 3d
       0.0046903845 -0.046902202 -0.0032332074 0.05365524
000140 e5 1b 98 bb 35 e5 4b 3d 7e c4 45 3d 5d 7f 18 3d
       -0.004641997 0.049779136 0.048283093 0.037230838
000150 68 0f be be 73 fe 16 3d 78 3f 0d bf 26 df 44 be
       -0.3712113 0.036863755 -0.5517497 -0.1922575
000160 ea 4c 36 be b6 9a cc bc f7 25 ab be 08 09 34 bf
       -0.17802778 -0.024976116 -0.33427402 -0.7032628
000170 77 e3 09 be c0 0c 56 bd 48 cc be bd f4 fb bf bb
       -0.13465677 -0.052258253 -0.09316307 -0.0058588926
000180 6a 9c f5 bd bf 94 b1 bc cc ea 0e be f6 42 9f be
       -0.11992724 -0.021677373 -0.13956755 -0.31105775
000190 bb 87 42 be a2 61 0a 3d 89 c9 86 be c3 c7 a6 be
       -0.1899709 0.033784516 -0.26325634 -0.3257428
0001a0 03 b1 e2 bd d4 fb 97 be 52 5d 9a bd f6 88 a6 be
       -0.110689186 -0.29684317 -0.07537331 -0.32526368
0001b0 1f a4 28 be b7 bd dc bd 12 e5 77 bc 37 e7 bf be
       -0.16468857 -0.10778373 -0.015130298 -0.3748109
0001c0 aa b9 64 be 3f 5d 9e be 56 2c 29 bf 31 22 ed bd
       -0.2233645 -0.30930516 -0.66083276 -0.11578787
0001d0 1d f4 c9 be c0 4e 19 bd dd 71 8b be 36 0c 3b be
       -0.39444056 -0.037428617 -0.27235308 -0.18266377
0001e0 16 ce 73 be 7b ab e3 bd f3 db ef be 7f 9d bd be
       -0.23809084 -0.11116692 -0.46847495 -0.37034222
0001f0 85 d7 77 be 5c e0 0d be 34 44 cd be 70 ce 66 be
       -0.24203308 -0.13855118 -0.40091097 -0.22539687
000200 21 f6 c3 be 59 bc a7 be e1 e3 49 bd 23 cd a3 bd
       -0.3827372 -0.32760885 -0.049289588 -0.07998111
000210 0e fa 00 be 5b 63 44 bf 51 af f4 bd 95 86 2f 3d
       -0.12595388 -0.76714104 -0.119475015 0.042852957
000220 5f 14 52 be 5e cd 4d be e9 97 28 3c bd f9 83 be
       -0.20515583 -0.20097873 0.010290124 -0.25776473
000230 e8 86 71 bd 16 61 93 bd 23 ed fd bd 61 19 33 bd
       -0.058966547 -0.07196252 -0.12398746 -0.043725375
000240 e9 f7 b9 be 70 33 2c be 77 9a 8b be 97 f1 49 be
       -0.36321953 -0.16816497 -0.27266285 -0.19721065
000250 39 23 94 be a4 cb b6 be 78 e2 64 be ce 19 c4 bd
       -0.28933123 -0.3570224 -0.22352016 -0.09575234
000260 80 6e 96 be 32 e5 f6 bd 4b 7c 59 be 6f 80 a2 be
       -0.2938118 -0.12055434 -0.2123882 -0.31738612
000270 bc c9 ab bd 64 e7 6e bd 9f 2b f0 be 23 96 89 be
       -0.08388087 -0.05832614 -0.4690828 -0.26872358
000280 ec c8 b3 be 90 d5 92 be e7 62 a8 be d3 26 fa bd
       -0.3511423 -0.2867856 -0.32887957 -0.122144364
000290 75 87 88 be 6c 60 da be 0a 0a 4c bf fd a5 54 be
       -0.26665846 -0.4265169 -0.7970282 -0.20766445
0002a0 3b 16 0a bf 0f 3a d2 bd 70 43 22 bf 75 4d f6 bd
       -0.5394017 -0.1026498 -0.6338415 -0.120264925
0002b0 c9 63 8a bd b1 4b fb 3c 3b f2 88 be 71 2c 09 bf
       -0.06757314 0.03067574 -0.26747307 -0.5358344
0002c0 dc 98 7d be f6 37 b8 ba 52 c9 c1 bd 24 b4 2f 3b
       -0.24765342 -0.0014054764 -0.09462227 0.0026810253
0002d0 c9 f8 43 be 1e ad 5c be e9 16 26 3c 84 f0 ab be
       -0.19137873 -0.21550414 0.010137298 -0.33581936
0002e0 1d 01 84 be 20 8a 87 bb fe e9 9f be e1 a9 cc be
       -0.257821 -0.004136339 -0.3123321 -0.39973357
0002f0 6b 9c a8 bd ea 28 3a be bf f9 2f bd 40 ff c7 be
       -0.08232959 -0.1817967 -0.042962786 -0.39061928
000300 90 7c 3f be 08 fb c1 3d fa c5 75 bc aa 55 b2 be
       -0.1869986 0.094717085 -0.015000815 -0.34830981
000310 30 83 7b be 0c 75 5a be 05 81 22 bf 85 8a 0b bd
       -0.24561763 -0.21333712 -0.6347812 -0.03406765
000320 35 f2 84 be 25 de a5 3d b1 d4 cd be 5b 11 0b be
       -0.2596604 0.08099011 -0.40201333 -0.1358084
000330 78 d1 5d be 92 fc cd bd 1d bc 97 be 3f 6d b2 be
       -0.21661937 -0.100579396 -0.29635707 -0.34848973
000340 ba 1b dc bd 15 bd ad bd a3 6b ca be 50 ad 3f be
       -0.10747476 -0.0848333 -0.39535245 -0.18718457
000350 ed 37 b3 be 20 ec bf be ad 74 03 3c b1 a0 08 bd
       -0.35003605 -0.37484837 0.008023423 -0.033356372
000360 e5 fe 25 be 0e 5d 17 bf a3 40 30 be 2b 04 d1 3d
       -0.16210516 -0.59126365 -0.17212157 0.10205873
000370 ff 1f 55 be c7 af 41 be b1 f3 fa 3b db 0b 63 be
       -0.20812987 -0.1891471 0.007658445 -0.22172491
000380 cd d3 ac bd ed 69 cc bc ff 39 28 3d 00 2d 02 bd
       -0.08438835 -0.024952853 0.041070934 -0.031781197
000390 d5 8f 98 be 82 1b 51 bc 46 f5 9b be 41 e8 40 be
       -0.29797235 -0.012762906 -0.30460566 -0.18838598
0003a0 54 fe c9 be 40 b0 a8 be 3c cc 78 be 8b 8b 1c be
       -0.3945185 -0.32946968 -0.24296659 -0.15287606
0003b0 cc e8 2b be 1a ba d3 bd 33 e6 8e be c9 76 82 be
       -0.16788024 -0.103382304 -0.27910003 -0.2548125
0003c0 c2 04 f2 bd ba ec db 3c 91 ba 06 bf e5 36 a7 be
       -0.11817314 0.026846278 -0.5262843 -0.3265907
0003d0 2c 6c 86 be 1e bb ce be d8 bb b4 be e2 00 bb bd
       -0.26254404 -0.40377134 -0.35299563 -0.09131028
0003e0 d2 3d c3 be 92 75 e5 be 1e c7 5e bf 26 c0 9c be
       -0.38133103 -0.44816262 -0.8702258 -0.30615348
0003f0 50 c4 fd be 06 a3 cb 3c a9 1b 0f bf 02 7e 3c be
       -0.49563837 0.02485801 -0.5590158 -0.18407443

fc3.bias f4 [10]
000000 59 c7 7b bd af 2f 74 be e4 17 bc be 79 99 8f be
       -0.06146941 -0.23846315 -0.36736977 -0.28046778
000010 53 e9 b9 be d1 ce 23 3e 1e aa 6d be 34 95 3b be
       -0.36310825 0.15996863 -0.23209426 -0.18318635
000020 2c b1 a6 be 2e ef b1 be
       -0.32557046 -0.34752792
